{
  "format": "graph-model",
  "generatedBy": "https://github.com/RangiLyu/nanodet",
  "convertedBy": "https://github.com/vladmandic",
  "signature":
  {
      "inputs":
      {
          "input.1": {"name":"input_1:0","dtype":"DT_FLOAT","tensorShape":{"dim":[{"size":"1"},{"size":"3"},{"size":"320"},{"size":"320"}]}}
      },
      "outputs":
      {
          "cls_pred_stride_16": {"name":"Identity:0","dtype":"DT_FLOAT","tensorShape":{"dim":[{"size":"1"},{"size":"400"},{"size":"80"}]}},
          "cls_pred_stride_32": {"name":"Identity_1:0","dtype":"DT_FLOAT","tensorShape":{"dim":[{"size":"1"},{"size":"100"},{"size":"80"}]}},
          "dis_pred_stride_32": {"name":"Identity_4:0","dtype":"DT_FLOAT","tensorShape":{"dim":[{"size":"1"},{"size":"100"},{"size":"32"}]}},
          "cls_pred_stride_8": {"name":"Identity_2:0","dtype":"DT_FLOAT","tensorShape":{"dim":[{"size":"1"},{"size":"1600"},{"size":"80"}]}},
          "dis_pred_stride_8": {"name":"Identity_5:0","dtype":"DT_FLOAT","tensorShape":{"dim":[{"size":"1"},{"size":"1600"},{"size":"32"}]}},
          "dis_pred_stride_16": {"name":"Identity_3:0","dtype":"DT_FLOAT","tensorShape":{"dim":[{"size":"1"},{"size":"400"},{"size":"32"}]}}
      }
  },
  "modelTopology":
  {
      "node":
      [
          {"name":"PartitionedCall/Where_2","op":"Const","attr":{"value":{"tensor":{"dtype":"DT_INT64","tensorShape":{"dim":[{},{"size":"1"}]}}},"dtype":{"type":"DT_INT64"}}},
          {"name":"PartitionedCall/Cast_10","op":"Const","attr":{"value":{"tensor":{"dtype":"DT_INT64","tensorShape":{"dim":[{"size":"1"}]}}},"dtype":{"type":"DT_INT64"}}},
          {"name":"PartitionedCall/GatherV2_2","op":"Const","attr":{"value":{"tensor":{"dtype":"DT_INT64","tensorShape":{"dim":[{}]}}},"dtype":{"type":"DT_INT64"}}},
          {"name":"PartitionedCall/zeros_2","op":"Const","attr":{"value":{"tensor":{"dtype":"DT_INT64","tensorShape":{}}},"dtype":{"type":"DT_INT64"}}},
          {"name":"PartitionedCall/onnx_tf_prefix_Transpose_130/perm","op":"Const","attr":{"value":{"tensor":{"dtype":"DT_INT32","tensorShape":{"dim":[{"size":"3"}]}}},"dtype":{"type":"DT_INT32"}}},
          {"name":"PartitionedCall/Where_4","op":"Const","attr":{"dtype":{"type":"DT_INT64"},"value":{"tensor":{"dtype":"DT_INT64","tensorShape":{"dim":[{},{"size":"1"}]}}}}},
          {"name":"PartitionedCall/Cast_12","op":"Const","attr":{"value":{"tensor":{"dtype":"DT_INT64","tensorShape":{"dim":[{"size":"1"}]}}},"dtype":{"type":"DT_INT64"}}},
          {"name":"PartitionedCall/GatherV2_4","op":"Const","attr":{"dtype":{"type":"DT_INT64"},"value":{"tensor":{"dtype":"DT_INT64","tensorShape":{"dim":[{}]}}}}},
          {"name":"PartitionedCall/zeros_4","op":"Const","attr":{"value":{"tensor":{"dtype":"DT_INT64","tensorShape":{}}},"dtype":{"type":"DT_INT64"}}},
          {"name":"PartitionedCall/onnx_tf_prefix_Transpose_147/perm","op":"Const","attr":{"dtype":{"type":"DT_INT32"},"value":{"tensor":{"dtype":"DT_INT32","tensorShape":{"dim":[{"size":"3"}]}}}}},
          {"name":"unknown_113","op":"Const","attr":{"value":{"tensor":{"dtype":"DT_INT64","tensorShape":{"dim":[{"size":"3"}]}}},"dtype":{"type":"DT_INT64"}}},
          {"name":"PartitionedCall/Where","op":"Const","attr":{"dtype":{"type":"DT_INT64"},"value":{"tensor":{"dtype":"DT_INT64","tensorShape":{"dim":[{},{"size":"1"}]}}}}},
          {"name":"PartitionedCall/Cast_8","op":"Const","attr":{"value":{"tensor":{"dtype":"DT_INT64","tensorShape":{"dim":[{"size":"1"}]}}},"dtype":{"type":"DT_INT64"}}},
          {"name":"PartitionedCall/GatherV2","op":"Const","attr":{"dtype":{"type":"DT_INT64"},"value":{"tensor":{"dtype":"DT_INT64","tensorShape":{"dim":[{}]}}}}},
          {"name":"PartitionedCall/zeros","op":"Const","attr":{"value":{"tensor":{"dtype":"DT_INT64","tensorShape":{}}},"dtype":{"type":"DT_INT64"}}},
          {"name":"PartitionedCall/onnx_tf_prefix_Transpose_113/perm","op":"Const","attr":{"value":{"tensor":{"dtype":"DT_INT32","tensorShape":{"dim":[{"size":"3"}]}}},"dtype":{"type":"DT_INT32"}}},
          {"name":"PartitionedCall/Const_94","op":"Const","attr":{"value":{"tensor":{"dtype":"DT_INT32","tensorShape":{"dim":[{"size":"4"},{"size":"2"}]}}},"dtype":{"type":"DT_INT32"}}},
          {"name":"PartitionedCall/transpose_177/perm","op":"Const","attr":{"value":{"tensor":{"dtype":"DT_INT32","tensorShape":{"dim":[{"size":"4"}]}}},"dtype":{"type":"DT_INT32"}}},
          {"name":"PartitionedCall/Reshape_18","op":"Const","attr":{"dtype":{"type":"DT_FLOAT"},"value":{"tensor":{"dtype":"DT_FLOAT","tensorShape":{"dim":[{"size":"3"},{"size":"3"},{"size":"96"},{"size":"1"}]}}}}},
          {"name":"unknown_116","op":"Const","attr":{"dtype":{"type":"DT_FLOAT"},"value":{"tensor":{"dtype":"DT_FLOAT","tensorShape":{"dim":[{"size":"96"}]}}}}},
          {"name":"PartitionedCall/transpose_178/perm","op":"Const","attr":{"dtype":{"type":"DT_INT32"},"value":{"tensor":{"dtype":"DT_INT32","tensorShape":{"dim":[{"size":"4"}]}}}}},
          {"name":"PartitionedCall/clip_by_value_36/Minimum/y","op":"Const","attr":{"value":{"tensor":{"dtype":"DT_FLOAT","tensorShape":{}}},"dtype":{"type":"DT_FLOAT"}}},
          {"name":"PartitionedCall/clip_by_value_36/y","op":"Const","attr":{"dtype":{"type":"DT_FLOAT"},"value":{"tensor":{"dtype":"DT_FLOAT","tensorShape":{}}}}},
          {"name":"PartitionedCall/transpose_180/perm","op":"Const","attr":{"dtype":{"type":"DT_INT32"},"value":{"tensor":{"dtype":"DT_INT32","tensorShape":{"dim":[{"size":"4"}]}}}}},
          {"name":"PartitionedCall/split_38","op":"Const","attr":{"dtype":{"type":"DT_FLOAT"},"value":{"tensor":{"dtype":"DT_FLOAT","tensorShape":{"dim":[{"size":"1"},{"size":"1"},{"size":"96"},{"size":"96"}]}}}}},
          {"name":"unknown_118","op":"Const","attr":{"dtype":{"type":"DT_FLOAT"},"value":{"tensor":{"dtype":"DT_FLOAT","tensorShape":{"dim":[{"size":"96"}]}}}}},
          {"name":"PartitionedCall/transpose_181/perm","op":"Const","attr":{"value":{"tensor":{"dtype":"DT_INT32","tensorShape":{"dim":[{"size":"4"}]}}},"dtype":{"type":"DT_INT32"}}},
          {"name":"PartitionedCall/clip_by_value_37/Minimum/y","op":"Const","attr":{"value":{"tensor":{"dtype":"DT_FLOAT","tensorShape":{}}},"dtype":{"type":"DT_FLOAT"}}},
          {"name":"PartitionedCall/clip_by_value_37/y","op":"Const","attr":{"value":{"tensor":{"dtype":"DT_FLOAT","tensorShape":{}}},"dtype":{"type":"DT_FLOAT"}}},
          {"name":"PartitionedCall/Const_99","op":"Const","attr":{"dtype":{"type":"DT_INT32"},"value":{"tensor":{"dtype":"DT_INT32","tensorShape":{"dim":[{"size":"4"},{"size":"2"}]}}}}},
          {"name":"PartitionedCall/transpose_183/perm","op":"Const","attr":{"dtype":{"type":"DT_INT32"},"value":{"tensor":{"dtype":"DT_INT32","tensorShape":{"dim":[{"size":"4"}]}}}}},
          {"name":"PartitionedCall/Reshape_19","op":"Const","attr":{"value":{"tensor":{"dtype":"DT_FLOAT","tensorShape":{"dim":[{"size":"3"},{"size":"3"},{"size":"96"},{"size":"1"}]}}},"dtype":{"type":"DT_FLOAT"}}},
          {"name":"unknown_120","op":"Const","attr":{"dtype":{"type":"DT_FLOAT"},"value":{"tensor":{"dtype":"DT_FLOAT","tensorShape":{"dim":[{"size":"96"}]}}}}},
          {"name":"PartitionedCall/transpose_184/perm","op":"Const","attr":{"dtype":{"type":"DT_INT32"},"value":{"tensor":{"dtype":"DT_INT32","tensorShape":{"dim":[{"size":"4"}]}}}}},
          {"name":"PartitionedCall/clip_by_value_38/Minimum/y","op":"Const","attr":{"dtype":{"type":"DT_FLOAT"},"value":{"tensor":{"dtype":"DT_FLOAT","tensorShape":{}}}}},
          {"name":"PartitionedCall/clip_by_value_38/y","op":"Const","attr":{"value":{"tensor":{"dtype":"DT_FLOAT","tensorShape":{}}},"dtype":{"type":"DT_FLOAT"}}},
          {"name":"PartitionedCall/transpose_186/perm","op":"Const","attr":{"dtype":{"type":"DT_INT32"},"value":{"tensor":{"dtype":"DT_INT32","tensorShape":{"dim":[{"size":"4"}]}}}}},
          {"name":"PartitionedCall/split_39","op":"Const","attr":{"value":{"tensor":{"dtype":"DT_FLOAT","tensorShape":{"dim":[{"size":"1"},{"size":"1"},{"size":"96"},{"size":"96"}]}}},"dtype":{"type":"DT_FLOAT"}}},
          {"name":"unknown_122","op":"Const","attr":{"value":{"tensor":{"dtype":"DT_FLOAT","tensorShape":{"dim":[{"size":"96"}]}}},"dtype":{"type":"DT_FLOAT"}}},
          {"name":"PartitionedCall/transpose_187/perm","op":"Const","attr":{"dtype":{"type":"DT_INT32"},"value":{"tensor":{"dtype":"DT_INT32","tensorShape":{"dim":[{"size":"4"}]}}}}},
          {"name":"PartitionedCall/clip_by_value_39/Minimum/y","op":"Const","attr":{"dtype":{"type":"DT_FLOAT"},"value":{"tensor":{"dtype":"DT_FLOAT","tensorShape":{}}}}},
          {"name":"PartitionedCall/clip_by_value_39/y","op":"Const","attr":{"value":{"tensor":{"dtype":"DT_FLOAT","tensorShape":{}}},"dtype":{"type":"DT_FLOAT"}}},
          {"name":"PartitionedCall/transpose_189/perm","op":"Const","attr":{"value":{"tensor":{"dtype":"DT_INT32","tensorShape":{"dim":[{"size":"4"}]}}},"dtype":{"type":"DT_INT32"}}},
          {"name":"PartitionedCall/split_40","op":"Const","attr":{"value":{"tensor":{"dtype":"DT_FLOAT","tensorShape":{"dim":[{"size":"1"},{"size":"1"},{"size":"96"},{"size":"112"}]}}},"dtype":{"type":"DT_FLOAT"}}},
          {"name":"unknown_124","op":"Const","attr":{"value":{"tensor":{"dtype":"DT_FLOAT","tensorShape":{"dim":[{"size":"112"}]}}},"dtype":{"type":"DT_FLOAT"}}},
          {"name":"PartitionedCall/transpose_190/perm","op":"Const","attr":{"value":{"tensor":{"dtype":"DT_INT32","tensorShape":{"dim":[{"size":"4"}]}}},"dtype":{"type":"DT_INT32"}}},
          {"name":"PartitionedCall/Const_104","op":"Const","attr":{"dtype":{"type":"DT_INT32"},"value":{"tensor":{"dtype":"DT_INT32","tensorShape":{"dim":[{"size":"2"}]}}}}},
          {"name":"PartitionedCall/onnx_tf_prefix_Split_126/split_dim","op":"Const","attr":{"value":{"tensor":{"dtype":"DT_INT32","tensorShape":{}}},"dtype":{"type":"DT_INT32"}}},
          {"name":"PartitionedCall/Where_3","op":"Const","attr":{"value":{"tensor":{"dtype":"DT_INT64","tensorShape":{"dim":[{},{"size":"1"}]}}},"dtype":{"type":"DT_INT64"}}},
          {"name":"PartitionedCall/Cast_11","op":"Const","attr":{"value":{"tensor":{"dtype":"DT_INT64","tensorShape":{"dim":[{"size":"1"}]}}},"dtype":{"type":"DT_INT64"}}},
          {"name":"PartitionedCall/GatherV2_3","op":"Const","attr":{"dtype":{"type":"DT_INT64"},"value":{"tensor":{"dtype":"DT_INT64","tensorShape":{"dim":[{}]}}}}},
          {"name":"PartitionedCall/zeros_3","op":"Const","attr":{"value":{"tensor":{"dtype":"DT_INT64","tensorShape":{}}},"dtype":{"type":"DT_INT64"}}},
          {"name":"PartitionedCall/onnx_tf_prefix_Transpose_133/perm","op":"Const","attr":{"value":{"tensor":{"dtype":"DT_INT32","tensorShape":{"dim":[{"size":"3"}]}}},"dtype":{"type":"DT_INT32"}}},
          {"name":"PartitionedCall/transpose_152/perm","op":"Const","attr":{"dtype":{"type":"DT_INT32"},"value":{"tensor":{"dtype":"DT_INT32","tensorShape":{"dim":[{"size":"4"}]}}}}},
          {"name":"PartitionedCall/transpose_157/perm","op":"Const","attr":{"dtype":{"type":"DT_INT32"},"value":{"tensor":{"dtype":"DT_INT32","tensorShape":{"dim":[{"size":"4"}]}}}}},
          {"name":"PartitionedCall/Cast_5","op":"Const","attr":{"value":{"tensor":{"dtype":"DT_INT32","tensorShape":{"dim":[{"size":"2"}]}}},"dtype":{"type":"DT_INT32"}}},
          {"name":"PartitionedCall/transpose_158/perm","op":"Const","attr":{"value":{"tensor":{"dtype":"DT_INT32","tensorShape":{"dim":[{"size":"4"}]}}},"dtype":{"type":"DT_INT32"}}},
          {"name":"PartitionedCall/transpose_159/perm","op":"Const","attr":{"dtype":{"type":"DT_INT32"},"value":{"tensor":{"dtype":"DT_INT32","tensorShape":{"dim":[{"size":"4"}]}}}}},
          {"name":"PartitionedCall/Cast_7","op":"Const","attr":{"dtype":{"type":"DT_INT32"},"value":{"tensor":{"dtype":"DT_INT32","tensorShape":{"dim":[{"size":"2"}]}}}}},
          {"name":"PartitionedCall/transpose_160/perm","op":"Const","attr":{"value":{"tensor":{"dtype":"DT_INT32","tensorShape":{"dim":[{"size":"4"}]}}},"dtype":{"type":"DT_INT32"}}},
          {"name":"PartitionedCall/Const_107","op":"Const","attr":{"value":{"tensor":{"dtype":"DT_INT32","tensorShape":{"dim":[{"size":"4"},{"size":"2"}]}}},"dtype":{"type":"DT_INT32"}}},
          {"name":"PartitionedCall/transpose_192/perm","op":"Const","attr":{"value":{"tensor":{"dtype":"DT_INT32","tensorShape":{"dim":[{"size":"4"}]}}},"dtype":{"type":"DT_INT32"}}},
          {"name":"PartitionedCall/Reshape_20","op":"Const","attr":{"dtype":{"type":"DT_FLOAT"},"value":{"tensor":{"dtype":"DT_FLOAT","tensorShape":{"dim":[{"size":"3"},{"size":"3"},{"size":"96"},{"size":"1"}]}}}}},
          {"name":"unknown_126","op":"Const","attr":{"value":{"tensor":{"dtype":"DT_FLOAT","tensorShape":{"dim":[{"size":"96"}]}}},"dtype":{"type":"DT_FLOAT"}}},
          {"name":"PartitionedCall/transpose_193/perm","op":"Const","attr":{"value":{"tensor":{"dtype":"DT_INT32","tensorShape":{"dim":[{"size":"4"}]}}},"dtype":{"type":"DT_INT32"}}},
          {"name":"PartitionedCall/clip_by_value_40/Minimum/y","op":"Const","attr":{"value":{"tensor":{"dtype":"DT_FLOAT","tensorShape":{}}},"dtype":{"type":"DT_FLOAT"}}},
          {"name":"PartitionedCall/clip_by_value_40/y","op":"Const","attr":{"dtype":{"type":"DT_FLOAT"},"value":{"tensor":{"dtype":"DT_FLOAT","tensorShape":{}}}}},
          {"name":"PartitionedCall/transpose_195/perm","op":"Const","attr":{"dtype":{"type":"DT_INT32"},"value":{"tensor":{"dtype":"DT_INT32","tensorShape":{"dim":[{"size":"4"}]}}}}},
          {"name":"PartitionedCall/split_41","op":"Const","attr":{"value":{"tensor":{"dtype":"DT_FLOAT","tensorShape":{"dim":[{"size":"1"},{"size":"1"},{"size":"96"},{"size":"96"}]}}},"dtype":{"type":"DT_FLOAT"}}},
          {"name":"unknown_128","op":"Const","attr":{"value":{"tensor":{"dtype":"DT_FLOAT","tensorShape":{"dim":[{"size":"96"}]}}},"dtype":{"type":"DT_FLOAT"}}},
          {"name":"PartitionedCall/transpose_196/perm","op":"Const","attr":{"dtype":{"type":"DT_INT32"},"value":{"tensor":{"dtype":"DT_INT32","tensorShape":{"dim":[{"size":"4"}]}}}}},
          {"name":"PartitionedCall/clip_by_value_41/Minimum/y","op":"Const","attr":{"value":{"tensor":{"dtype":"DT_FLOAT","tensorShape":{}}},"dtype":{"type":"DT_FLOAT"}}},
          {"name":"PartitionedCall/clip_by_value_41/y","op":"Const","attr":{"dtype":{"type":"DT_FLOAT"},"value":{"tensor":{"dtype":"DT_FLOAT","tensorShape":{}}}}},
          {"name":"PartitionedCall/Const_112","op":"Const","attr":{"dtype":{"type":"DT_INT32"},"value":{"tensor":{"dtype":"DT_INT32","tensorShape":{"dim":[{"size":"4"},{"size":"2"}]}}}}},
          {"name":"PartitionedCall/transpose_198/perm","op":"Const","attr":{"value":{"tensor":{"dtype":"DT_INT32","tensorShape":{"dim":[{"size":"4"}]}}},"dtype":{"type":"DT_INT32"}}},
          {"name":"PartitionedCall/Reshape_21","op":"Const","attr":{"value":{"tensor":{"dtype":"DT_FLOAT","tensorShape":{"dim":[{"size":"3"},{"size":"3"},{"size":"96"},{"size":"1"}]}}},"dtype":{"type":"DT_FLOAT"}}},
          {"name":"unknown_130","op":"Const","attr":{"value":{"tensor":{"dtype":"DT_FLOAT","tensorShape":{"dim":[{"size":"96"}]}}},"dtype":{"type":"DT_FLOAT"}}},
          {"name":"PartitionedCall/transpose_199/perm","op":"Const","attr":{"dtype":{"type":"DT_INT32"},"value":{"tensor":{"dtype":"DT_INT32","tensorShape":{"dim":[{"size":"4"}]}}}}},
          {"name":"PartitionedCall/clip_by_value_42/Minimum/y","op":"Const","attr":{"dtype":{"type":"DT_FLOAT"},"value":{"tensor":{"dtype":"DT_FLOAT","tensorShape":{}}}}},
          {"name":"PartitionedCall/clip_by_value_42/y","op":"Const","attr":{"dtype":{"type":"DT_FLOAT"},"value":{"tensor":{"dtype":"DT_FLOAT","tensorShape":{}}}}},
          {"name":"PartitionedCall/transpose_201/perm","op":"Const","attr":{"value":{"tensor":{"dtype":"DT_INT32","tensorShape":{"dim":[{"size":"4"}]}}},"dtype":{"type":"DT_INT32"}}},
          {"name":"PartitionedCall/split_42","op":"Const","attr":{"value":{"tensor":{"dtype":"DT_FLOAT","tensorShape":{"dim":[{"size":"1"},{"size":"1"},{"size":"96"},{"size":"96"}]}}},"dtype":{"type":"DT_FLOAT"}}},
          {"name":"unknown_132","op":"Const","attr":{"dtype":{"type":"DT_FLOAT"},"value":{"tensor":{"dtype":"DT_FLOAT","tensorShape":{"dim":[{"size":"96"}]}}}}},
          {"name":"PartitionedCall/transpose_202/perm","op":"Const","attr":{"dtype":{"type":"DT_INT32"},"value":{"tensor":{"dtype":"DT_INT32","tensorShape":{"dim":[{"size":"4"}]}}}}},
          {"name":"PartitionedCall/clip_by_value_43/Minimum/y","op":"Const","attr":{"value":{"tensor":{"dtype":"DT_FLOAT","tensorShape":{}}},"dtype":{"type":"DT_FLOAT"}}},
          {"name":"PartitionedCall/clip_by_value_43/y","op":"Const","attr":{"value":{"tensor":{"dtype":"DT_FLOAT","tensorShape":{}}},"dtype":{"type":"DT_FLOAT"}}},
          {"name":"PartitionedCall/transpose_204/perm","op":"Const","attr":{"dtype":{"type":"DT_INT32"},"value":{"tensor":{"dtype":"DT_INT32","tensorShape":{"dim":[{"size":"4"}]}}}}},
          {"name":"PartitionedCall/split_43","op":"Const","attr":{"dtype":{"type":"DT_FLOAT"},"value":{"tensor":{"dtype":"DT_FLOAT","tensorShape":{"dim":[{"size":"1"},{"size":"1"},{"size":"96"},{"size":"112"}]}}}}},
          {"name":"unknown_134","op":"Const","attr":{"dtype":{"type":"DT_FLOAT"},"value":{"tensor":{"dtype":"DT_FLOAT","tensorShape":{"dim":[{"size":"112"}]}}}}},
          {"name":"PartitionedCall/transpose_205/perm","op":"Const","attr":{"value":{"tensor":{"dtype":"DT_INT32","tensorShape":{"dim":[{"size":"4"}]}}},"dtype":{"type":"DT_INT32"}}},
          {"name":"PartitionedCall/Const_117","op":"Const","attr":{"value":{"tensor":{"dtype":"DT_INT32","tensorShape":{"dim":[{"size":"2"}]}}},"dtype":{"type":"DT_INT32"}}},
          {"name":"PartitionedCall/onnx_tf_prefix_Split_143/split_dim","op":"Const","attr":{"value":{"tensor":{"dtype":"DT_INT32","tensorShape":{}}},"dtype":{"type":"DT_INT32"}}},
          {"name":"PartitionedCall/Where_5","op":"Const","attr":{"dtype":{"type":"DT_INT64"},"value":{"tensor":{"dtype":"DT_INT64","tensorShape":{"dim":[{},{"size":"1"}]}}}}},
          {"name":"PartitionedCall/Cast_13","op":"Const","attr":{"dtype":{"type":"DT_INT64"},"value":{"tensor":{"dtype":"DT_INT64","tensorShape":{"dim":[{"size":"1"}]}}}}},
          {"name":"PartitionedCall/GatherV2_5","op":"Const","attr":{"value":{"tensor":{"dtype":"DT_INT64","tensorShape":{"dim":[{}]}}},"dtype":{"type":"DT_INT64"}}},
          {"name":"PartitionedCall/zeros_5","op":"Const","attr":{"value":{"tensor":{"dtype":"DT_INT64","tensorShape":{}}},"dtype":{"type":"DT_INT64"}}},
          {"name":"PartitionedCall/onnx_tf_prefix_Transpose_150/perm","op":"Const","attr":{"dtype":{"type":"DT_INT32"},"value":{"tensor":{"dtype":"DT_INT32","tensorShape":{"dim":[{"size":"3"}]}}}}},
          {"name":"PartitionedCall/transpose_145/perm","op":"Const","attr":{"value":{"tensor":{"dtype":"DT_INT32","tensorShape":{"dim":[{"size":"4"}]}}},"dtype":{"type":"DT_INT32"}}},
          {"name":"PartitionedCall/split_32","op":"Const","attr":{"dtype":{"type":"DT_FLOAT"},"value":{"tensor":{"dtype":"DT_FLOAT","tensorShape":{"dim":[{"size":"1"},{"size":"1"},{"size":"40"},{"size":"96"}]}}}}},
          {"name":"unknown_96","op":"Const","attr":{"value":{"tensor":{"dtype":"DT_FLOAT","tensorShape":{"dim":[{"size":"96"}]}}},"dtype":{"type":"DT_FLOAT"}}},
          {"name":"PartitionedCall/transpose_146/perm","op":"Const","attr":{"value":{"tensor":{"dtype":"DT_INT32","tensorShape":{"dim":[{"size":"4"}]}}},"dtype":{"type":"DT_INT32"}}},
          {"name":"PartitionedCall/transpose_148/perm","op":"Const","attr":{"value":{"tensor":{"dtype":"DT_INT32","tensorShape":{"dim":[{"size":"4"}]}}},"dtype":{"type":"DT_INT32"}}},
          {"name":"PartitionedCall/split_33","op":"Const","attr":{"value":{"tensor":{"dtype":"DT_FLOAT","tensorShape":{"dim":[{"size":"1"},{"size":"1"},{"size":"112"},{"size":"96"}]}}},"dtype":{"type":"DT_FLOAT"}}},
          {"name":"unknown_98","op":"Const","attr":{"value":{"tensor":{"dtype":"DT_FLOAT","tensorShape":{"dim":[{"size":"96"}]}}},"dtype":{"type":"DT_FLOAT"}}},
          {"name":"PartitionedCall/transpose_149/perm","op":"Const","attr":{"value":{"tensor":{"dtype":"DT_INT32","tensorShape":{"dim":[{"size":"4"}]}}},"dtype":{"type":"DT_INT32"}}},
          {"name":"PartitionedCall/transpose_127/perm","op":"Const","attr":{"value":{"tensor":{"dtype":"DT_INT32","tensorShape":{"dim":[{"size":"4"}]}}},"dtype":{"type":"DT_INT32"}}},
          {"name":"PartitionedCall/split_28","op":"Const","attr":{"dtype":{"type":"DT_FLOAT"},"value":{"tensor":{"dtype":"DT_FLOAT","tensorShape":{"dim":[{"size":"1"},{"size":"1"},{"size":"192"},{"size":"1152"}]}}}}},
          {"name":"unknown_84","op":"Const","attr":{"value":{"tensor":{"dtype":"DT_FLOAT","tensorShape":{"dim":[{"size":"1152"}]}}},"dtype":{"type":"DT_FLOAT"}}},
          {"name":"PartitionedCall/transpose_128/perm","op":"Const","attr":{"value":{"tensor":{"dtype":"DT_INT32","tensorShape":{"dim":[{"size":"4"}]}}},"dtype":{"type":"DT_INT32"}}},
          {"name":"PartitionedCall/clip_by_value_28/Minimum/y","op":"Const","attr":{"value":{"tensor":{"dtype":"DT_FLOAT","tensorShape":{}}},"dtype":{"type":"DT_FLOAT"}}},
          {"name":"PartitionedCall/clip_by_value_28/y","op":"Const","attr":{"value":{"tensor":{"dtype":"DT_FLOAT","tensorShape":{}}},"dtype":{"type":"DT_FLOAT"}}},
          {"name":"PartitionedCall/Const_73","op":"Const","attr":{"value":{"tensor":{"dtype":"DT_INT32","tensorShape":{"dim":[{"size":"4"},{"size":"2"}]}}},"dtype":{"type":"DT_INT32"}}},
          {"name":"PartitionedCall/transpose_130/perm","op":"Const","attr":{"dtype":{"type":"DT_INT32"},"value":{"tensor":{"dtype":"DT_INT32","tensorShape":{"dim":[{"size":"4"}]}}}}},
          {"name":"PartitionedCall/Reshape_14","op":"Const","attr":{"dtype":{"type":"DT_FLOAT"},"value":{"tensor":{"dtype":"DT_FLOAT","tensorShape":{"dim":[{"size":"5"},{"size":"5"},{"size":"1152"},{"size":"1"}]}}}}},
          {"name":"unknown_86","op":"Const","attr":{"dtype":{"type":"DT_FLOAT"},"value":{"tensor":{"dtype":"DT_FLOAT","tensorShape":{"dim":[{"size":"1152"}]}}}}},
          {"name":"PartitionedCall/transpose_131/perm","op":"Const","attr":{"dtype":{"type":"DT_INT32"},"value":{"tensor":{"dtype":"DT_INT32","tensorShape":{"dim":[{"size":"4"}]}}}}},
          {"name":"PartitionedCall/clip_by_value_29/Minimum/y","op":"Const","attr":{"dtype":{"type":"DT_FLOAT"},"value":{"tensor":{"dtype":"DT_FLOAT","tensorShape":{}}}}},
          {"name":"PartitionedCall/clip_by_value_29/y","op":"Const","attr":{"value":{"tensor":{"dtype":"DT_FLOAT","tensorShape":{}}},"dtype":{"type":"DT_FLOAT"}}},
          {"name":"PartitionedCall/transpose_133/perm","op":"Const","attr":{"dtype":{"type":"DT_INT32"},"value":{"tensor":{"dtype":"DT_INT32","tensorShape":{"dim":[{"size":"4"}]}}}}},
          {"name":"PartitionedCall/split_29","op":"Const","attr":{"value":{"tensor":{"dtype":"DT_FLOAT","tensorShape":{"dim":[{"size":"1"},{"size":"1"},{"size":"1152"},{"size":"192"}]}}},"dtype":{"type":"DT_FLOAT"}}},
          {"name":"unknown_88","op":"Const","attr":{"value":{"tensor":{"dtype":"DT_FLOAT","tensorShape":{"dim":[{"size":"192"}]}}},"dtype":{"type":"DT_FLOAT"}}},
          {"name":"PartitionedCall/transpose_134/perm","op":"Const","attr":{"value":{"tensor":{"dtype":"DT_INT32","tensorShape":{"dim":[{"size":"4"}]}}},"dtype":{"type":"DT_INT32"}}},
          {"name":"PartitionedCall/transpose_118/perm","op":"Const","attr":{"value":{"tensor":{"dtype":"DT_INT32","tensorShape":{"dim":[{"size":"4"}]}}},"dtype":{"type":"DT_INT32"}}},
          {"name":"PartitionedCall/split_26","op":"Const","attr":{"value":{"tensor":{"dtype":"DT_FLOAT","tensorShape":{"dim":[{"size":"1"},{"size":"1"},{"size":"192"},{"size":"1152"}]}}},"dtype":{"type":"DT_FLOAT"}}},
          {"name":"unknown_78","op":"Const","attr":{"value":{"tensor":{"dtype":"DT_FLOAT","tensorShape":{"dim":[{"size":"1152"}]}}},"dtype":{"type":"DT_FLOAT"}}},
          {"name":"PartitionedCall/transpose_119/perm","op":"Const","attr":{"dtype":{"type":"DT_INT32"},"value":{"tensor":{"dtype":"DT_INT32","tensorShape":{"dim":[{"size":"4"}]}}}}},
          {"name":"PartitionedCall/clip_by_value_26/Minimum/y","op":"Const","attr":{"value":{"tensor":{"dtype":"DT_FLOAT","tensorShape":{}}},"dtype":{"type":"DT_FLOAT"}}},
          {"name":"PartitionedCall/clip_by_value_26/y","op":"Const","attr":{"value":{"tensor":{"dtype":"DT_FLOAT","tensorShape":{}}},"dtype":{"type":"DT_FLOAT"}}},
          {"name":"PartitionedCall/Const_68","op":"Const","attr":{"dtype":{"type":"DT_INT32"},"value":{"tensor":{"dtype":"DT_INT32","tensorShape":{"dim":[{"size":"4"},{"size":"2"}]}}}}},
          {"name":"PartitionedCall/transpose_121/perm","op":"Const","attr":{"dtype":{"type":"DT_INT32"},"value":{"tensor":{"dtype":"DT_INT32","tensorShape":{"dim":[{"size":"4"}]}}}}},
          {"name":"PartitionedCall/Reshape_13","op":"Const","attr":{"value":{"tensor":{"dtype":"DT_FLOAT","tensorShape":{"dim":[{"size":"5"},{"size":"5"},{"size":"1152"},{"size":"1"}]}}},"dtype":{"type":"DT_FLOAT"}}},
          {"name":"unknown_80","op":"Const","attr":{"dtype":{"type":"DT_FLOAT"},"value":{"tensor":{"dtype":"DT_FLOAT","tensorShape":{"dim":[{"size":"1152"}]}}}}},
          {"name":"PartitionedCall/transpose_122/perm","op":"Const","attr":{"value":{"tensor":{"dtype":"DT_INT32","tensorShape":{"dim":[{"size":"4"}]}}},"dtype":{"type":"DT_INT32"}}},
          {"name":"PartitionedCall/clip_by_value_27/Minimum/y","op":"Const","attr":{"dtype":{"type":"DT_FLOAT"},"value":{"tensor":{"dtype":"DT_FLOAT","tensorShape":{}}}}},
          {"name":"PartitionedCall/clip_by_value_27/y","op":"Const","attr":{"dtype":{"type":"DT_FLOAT"},"value":{"tensor":{"dtype":"DT_FLOAT","tensorShape":{}}}}},
          {"name":"PartitionedCall/transpose_124/perm","op":"Const","attr":{"dtype":{"type":"DT_INT32"},"value":{"tensor":{"dtype":"DT_INT32","tensorShape":{"dim":[{"size":"4"}]}}}}},
          {"name":"PartitionedCall/split_27","op":"Const","attr":{"value":{"tensor":{"dtype":"DT_FLOAT","tensorShape":{"dim":[{"size":"1"},{"size":"1"},{"size":"1152"},{"size":"192"}]}}},"dtype":{"type":"DT_FLOAT"}}},
          {"name":"unknown_82","op":"Const","attr":{"dtype":{"type":"DT_FLOAT"},"value":{"tensor":{"dtype":"DT_FLOAT","tensorShape":{"dim":[{"size":"192"}]}}}}},
          {"name":"PartitionedCall/transpose_125/perm","op":"Const","attr":{"value":{"tensor":{"dtype":"DT_INT32","tensorShape":{"dim":[{"size":"4"}]}}},"dtype":{"type":"DT_INT32"}}},
          {"name":"PartitionedCall/split_24","op":"Const","attr":{"dtype":{"type":"DT_FLOAT"},"value":{"tensor":{"dtype":"DT_FLOAT","tensorShape":{"dim":[{"size":"1"},{"size":"1"},{"size":"192"},{"size":"1152"}]}}}}},
          {"name":"unknown_72","op":"Const","attr":{"value":{"tensor":{"dtype":"DT_FLOAT","tensorShape":{"dim":[{"size":"1152"}]}}},"dtype":{"type":"DT_FLOAT"}}},
          {"name":"PartitionedCall/transpose_110/perm","op":"Const","attr":{"value":{"tensor":{"dtype":"DT_INT32","tensorShape":{"dim":[{"size":"4"}]}}},"dtype":{"type":"DT_INT32"}}},
          {"name":"PartitionedCall/clip_by_value_24/Minimum/y","op":"Const","attr":{"value":{"tensor":{"dtype":"DT_FLOAT","tensorShape":{}}},"dtype":{"type":"DT_FLOAT"}}},
          {"name":"PartitionedCall/clip_by_value_24/y","op":"Const","attr":{"value":{"tensor":{"dtype":"DT_FLOAT","tensorShape":{}}},"dtype":{"type":"DT_FLOAT"}}},
          {"name":"PartitionedCall/Const_63","op":"Const","attr":{"dtype":{"type":"DT_INT32"},"value":{"tensor":{"dtype":"DT_INT32","tensorShape":{"dim":[{"size":"4"},{"size":"2"}]}}}}},
          {"name":"PartitionedCall/transpose_112/perm","op":"Const","attr":{"dtype":{"type":"DT_INT32"},"value":{"tensor":{"dtype":"DT_INT32","tensorShape":{"dim":[{"size":"4"}]}}}}},
          {"name":"PartitionedCall/Reshape_12","op":"Const","attr":{"dtype":{"type":"DT_FLOAT"},"value":{"tensor":{"dtype":"DT_FLOAT","tensorShape":{"dim":[{"size":"5"},{"size":"5"},{"size":"1152"},{"size":"1"}]}}}}},
          {"name":"unknown_74","op":"Const","attr":{"value":{"tensor":{"dtype":"DT_FLOAT","tensorShape":{"dim":[{"size":"1152"}]}}},"dtype":{"type":"DT_FLOAT"}}},
          {"name":"PartitionedCall/transpose_113/perm","op":"Const","attr":{"dtype":{"type":"DT_INT32"},"value":{"tensor":{"dtype":"DT_INT32","tensorShape":{"dim":[{"size":"4"}]}}}}},
          {"name":"PartitionedCall/clip_by_value_25/Minimum/y","op":"Const","attr":{"dtype":{"type":"DT_FLOAT"},"value":{"tensor":{"dtype":"DT_FLOAT","tensorShape":{}}}}},
          {"name":"PartitionedCall/clip_by_value_25/y","op":"Const","attr":{"dtype":{"type":"DT_FLOAT"},"value":{"tensor":{"dtype":"DT_FLOAT","tensorShape":{}}}}},
          {"name":"PartitionedCall/transpose_115/perm","op":"Const","attr":{"dtype":{"type":"DT_INT32"},"value":{"tensor":{"dtype":"DT_INT32","tensorShape":{"dim":[{"size":"4"}]}}}}},
          {"name":"PartitionedCall/split_25","op":"Const","attr":{"value":{"tensor":{"dtype":"DT_FLOAT","tensorShape":{"dim":[{"size":"1"},{"size":"1"},{"size":"1152"},{"size":"192"}]}}},"dtype":{"type":"DT_FLOAT"}}},
          {"name":"unknown_76","op":"Const","attr":{"dtype":{"type":"DT_FLOAT"},"value":{"tensor":{"dtype":"DT_FLOAT","tensorShape":{"dim":[{"size":"192"}]}}}}},
          {"name":"PartitionedCall/transpose_116/perm","op":"Const","attr":{"dtype":{"type":"DT_INT32"},"value":{"tensor":{"dtype":"DT_INT32","tensorShape":{"dim":[{"size":"4"}]}}}}},
          {"name":"PartitionedCall/transpose_91/perm","op":"Const","attr":{"dtype":{"type":"DT_INT32"},"value":{"tensor":{"dtype":"DT_INT32","tensorShape":{"dim":[{"size":"4"}]}}}}},
          {"name":"PartitionedCall/split_20","op":"Const","attr":{"dtype":{"type":"DT_FLOAT"},"value":{"tensor":{"dtype":"DT_FLOAT","tensorShape":{"dim":[{"size":"1"},{"size":"1"},{"size":"112"},{"size":"672"}]}}}}},
          {"name":"unknown_60","op":"Const","attr":{"value":{"tensor":{"dtype":"DT_FLOAT","tensorShape":{"dim":[{"size":"672"}]}}},"dtype":{"type":"DT_FLOAT"}}},
          {"name":"PartitionedCall/transpose_92/perm","op":"Const","attr":{"value":{"tensor":{"dtype":"DT_INT32","tensorShape":{"dim":[{"size":"4"}]}}},"dtype":{"type":"DT_INT32"}}},
          {"name":"PartitionedCall/clip_by_value_20/Minimum/y","op":"Const","attr":{"dtype":{"type":"DT_FLOAT"},"value":{"tensor":{"dtype":"DT_FLOAT","tensorShape":{}}}}},
          {"name":"PartitionedCall/clip_by_value_20/y","op":"Const","attr":{"value":{"tensor":{"dtype":"DT_FLOAT","tensorShape":{}}},"dtype":{"type":"DT_FLOAT"}}},
          {"name":"PartitionedCall/Const_53","op":"Const","attr":{"value":{"tensor":{"dtype":"DT_INT32","tensorShape":{"dim":[{"size":"4"},{"size":"2"}]}}},"dtype":{"type":"DT_INT32"}}},
          {"name":"PartitionedCall/transpose_94/perm","op":"Const","attr":{"value":{"tensor":{"dtype":"DT_INT32","tensorShape":{"dim":[{"size":"4"}]}}},"dtype":{"type":"DT_INT32"}}},
          {"name":"PartitionedCall/Reshape_10","op":"Const","attr":{"dtype":{"type":"DT_FLOAT"},"value":{"tensor":{"dtype":"DT_FLOAT","tensorShape":{"dim":[{"size":"5"},{"size":"5"},{"size":"672"},{"size":"1"}]}}}}},
          {"name":"unknown_62","op":"Const","attr":{"dtype":{"type":"DT_FLOAT"},"value":{"tensor":{"dtype":"DT_FLOAT","tensorShape":{"dim":[{"size":"672"}]}}}}},
          {"name":"PartitionedCall/transpose_95/perm","op":"Const","attr":{"value":{"tensor":{"dtype":"DT_INT32","tensorShape":{"dim":[{"size":"4"}]}}},"dtype":{"type":"DT_INT32"}}},
          {"name":"PartitionedCall/clip_by_value_21/Minimum/y","op":"Const","attr":{"value":{"tensor":{"dtype":"DT_FLOAT","tensorShape":{}}},"dtype":{"type":"DT_FLOAT"}}},
          {"name":"PartitionedCall/clip_by_value_21/y","op":"Const","attr":{"dtype":{"type":"DT_FLOAT"},"value":{"tensor":{"dtype":"DT_FLOAT","tensorShape":{}}}}},
          {"name":"PartitionedCall/transpose_97/perm","op":"Const","attr":{"dtype":{"type":"DT_INT32"},"value":{"tensor":{"dtype":"DT_INT32","tensorShape":{"dim":[{"size":"4"}]}}}}},
          {"name":"PartitionedCall/split_21","op":"Const","attr":{"value":{"tensor":{"dtype":"DT_FLOAT","tensorShape":{"dim":[{"size":"1"},{"size":"1"},{"size":"672"},{"size":"112"}]}}},"dtype":{"type":"DT_FLOAT"}}},
          {"name":"unknown_64","op":"Const","attr":{"dtype":{"type":"DT_FLOAT"},"value":{"tensor":{"dtype":"DT_FLOAT","tensorShape":{"dim":[{"size":"112"}]}}}}},
          {"name":"PartitionedCall/transpose_98/perm","op":"Const","attr":{"dtype":{"type":"DT_INT32"},"value":{"tensor":{"dtype":"DT_INT32","tensorShape":{"dim":[{"size":"4"}]}}}}},
          {"name":"PartitionedCall/split_18","op":"Const","attr":{"dtype":{"type":"DT_FLOAT"},"value":{"tensor":{"dtype":"DT_FLOAT","tensorShape":{"dim":[{"size":"1"},{"size":"1"},{"size":"112"},{"size":"672"}]}}}}},
          {"name":"unknown_54","op":"Const","attr":{"dtype":{"type":"DT_FLOAT"},"value":{"tensor":{"dtype":"DT_FLOAT","tensorShape":{"dim":[{"size":"672"}]}}}}},
          {"name":"PartitionedCall/transpose_83/perm","op":"Const","attr":{"dtype":{"type":"DT_INT32"},"value":{"tensor":{"dtype":"DT_INT32","tensorShape":{"dim":[{"size":"4"}]}}}}},
          {"name":"PartitionedCall/clip_by_value_18/Minimum/y","op":"Const","attr":{"value":{"tensor":{"dtype":"DT_FLOAT","tensorShape":{}}},"dtype":{"type":"DT_FLOAT"}}},
          {"name":"PartitionedCall/clip_by_value_18/y","op":"Const","attr":{"dtype":{"type":"DT_FLOAT"},"value":{"tensor":{"dtype":"DT_FLOAT","tensorShape":{}}}}},
          {"name":"PartitionedCall/Const_48","op":"Const","attr":{"dtype":{"type":"DT_INT32"},"value":{"tensor":{"dtype":"DT_INT32","tensorShape":{"dim":[{"size":"4"},{"size":"2"}]}}}}},
          {"name":"PartitionedCall/transpose_85/perm","op":"Const","attr":{"value":{"tensor":{"dtype":"DT_INT32","tensorShape":{"dim":[{"size":"4"}]}}},"dtype":{"type":"DT_INT32"}}},
          {"name":"PartitionedCall/Reshape_9","op":"Const","attr":{"value":{"tensor":{"dtype":"DT_FLOAT","tensorShape":{"dim":[{"size":"5"},{"size":"5"},{"size":"672"},{"size":"1"}]}}},"dtype":{"type":"DT_FLOAT"}}},
          {"name":"unknown_56","op":"Const","attr":{"dtype":{"type":"DT_FLOAT"},"value":{"tensor":{"dtype":"DT_FLOAT","tensorShape":{"dim":[{"size":"672"}]}}}}},
          {"name":"PartitionedCall/transpose_86/perm","op":"Const","attr":{"value":{"tensor":{"dtype":"DT_INT32","tensorShape":{"dim":[{"size":"4"}]}}},"dtype":{"type":"DT_INT32"}}},
          {"name":"PartitionedCall/clip_by_value_19/Minimum/y","op":"Const","attr":{"dtype":{"type":"DT_FLOAT"},"value":{"tensor":{"dtype":"DT_FLOAT","tensorShape":{}}}}},
          {"name":"PartitionedCall/clip_by_value_19/y","op":"Const","attr":{"value":{"tensor":{"dtype":"DT_FLOAT","tensorShape":{}}},"dtype":{"type":"DT_FLOAT"}}},
          {"name":"PartitionedCall/transpose_88/perm","op":"Const","attr":{"dtype":{"type":"DT_INT32"},"value":{"tensor":{"dtype":"DT_INT32","tensorShape":{"dim":[{"size":"4"}]}}}}},
          {"name":"PartitionedCall/split_19","op":"Const","attr":{"value":{"tensor":{"dtype":"DT_FLOAT","tensorShape":{"dim":[{"size":"1"},{"size":"1"},{"size":"672"},{"size":"112"}]}}},"dtype":{"type":"DT_FLOAT"}}},
          {"name":"unknown_58","op":"Const","attr":{"value":{"tensor":{"dtype":"DT_FLOAT","tensorShape":{"dim":[{"size":"112"}]}}},"dtype":{"type":"DT_FLOAT"}}},
          {"name":"PartitionedCall/transpose_89/perm","op":"Const","attr":{"dtype":{"type":"DT_INT32"},"value":{"tensor":{"dtype":"DT_INT32","tensorShape":{"dim":[{"size":"4"}]}}}}},
          {"name":"PartitionedCall/transpose_64/perm","op":"Const","attr":{"value":{"tensor":{"dtype":"DT_INT32","tensorShape":{"dim":[{"size":"4"}]}}},"dtype":{"type":"DT_INT32"}}},
          {"name":"PartitionedCall/split_14","op":"Const","attr":{"dtype":{"type":"DT_FLOAT"},"value":{"tensor":{"dtype":"DT_FLOAT","tensorShape":{"dim":[{"size":"1"},{"size":"1"},{"size":"80"},{"size":"480"}]}}}}},
          {"name":"unknown_42","op":"Const","attr":{"value":{"tensor":{"dtype":"DT_FLOAT","tensorShape":{"dim":[{"size":"480"}]}}},"dtype":{"type":"DT_FLOAT"}}},
          {"name":"PartitionedCall/transpose_65/perm","op":"Const","attr":{"dtype":{"type":"DT_INT32"},"value":{"tensor":{"dtype":"DT_INT32","tensorShape":{"dim":[{"size":"4"}]}}}}},
          {"name":"PartitionedCall/clip_by_value_14/Minimum/y","op":"Const","attr":{"dtype":{"type":"DT_FLOAT"},"value":{"tensor":{"dtype":"DT_FLOAT","tensorShape":{}}}}},
          {"name":"PartitionedCall/clip_by_value_14/y","op":"Const","attr":{"value":{"tensor":{"dtype":"DT_FLOAT","tensorShape":{}}},"dtype":{"type":"DT_FLOAT"}}},
          {"name":"PartitionedCall/Const_38","op":"Const","attr":{"value":{"tensor":{"dtype":"DT_INT32","tensorShape":{"dim":[{"size":"4"},{"size":"2"}]}}},"dtype":{"type":"DT_INT32"}}},
          {"name":"PartitionedCall/transpose_67/perm","op":"Const","attr":{"dtype":{"type":"DT_INT32"},"value":{"tensor":{"dtype":"DT_INT32","tensorShape":{"dim":[{"size":"4"}]}}}}},
          {"name":"PartitionedCall/Reshape_7","op":"Const","attr":{"dtype":{"type":"DT_FLOAT"},"value":{"tensor":{"dtype":"DT_FLOAT","tensorShape":{"dim":[{"size":"3"},{"size":"3"},{"size":"480"},{"size":"1"}]}}}}},
          {"name":"unknown_44","op":"Const","attr":{"dtype":{"type":"DT_FLOAT"},"value":{"tensor":{"dtype":"DT_FLOAT","tensorShape":{"dim":[{"size":"480"}]}}}}},
          {"name":"PartitionedCall/transpose_68/perm","op":"Const","attr":{"dtype":{"type":"DT_INT32"},"value":{"tensor":{"dtype":"DT_INT32","tensorShape":{"dim":[{"size":"4"}]}}}}},
          {"name":"PartitionedCall/clip_by_value_15/Minimum/y","op":"Const","attr":{"value":{"tensor":{"dtype":"DT_FLOAT","tensorShape":{}}},"dtype":{"type":"DT_FLOAT"}}},
          {"name":"PartitionedCall/clip_by_value_15/y","op":"Const","attr":{"dtype":{"type":"DT_FLOAT"},"value":{"tensor":{"dtype":"DT_FLOAT","tensorShape":{}}}}},
          {"name":"PartitionedCall/transpose_70/perm","op":"Const","attr":{"value":{"tensor":{"dtype":"DT_INT32","tensorShape":{"dim":[{"size":"4"}]}}},"dtype":{"type":"DT_INT32"}}},
          {"name":"PartitionedCall/split_15","op":"Const","attr":{"value":{"tensor":{"dtype":"DT_FLOAT","tensorShape":{"dim":[{"size":"1"},{"size":"1"},{"size":"480"},{"size":"80"}]}}},"dtype":{"type":"DT_FLOAT"}}},
          {"name":"unknown_46","op":"Const","attr":{"value":{"tensor":{"dtype":"DT_FLOAT","tensorShape":{"dim":[{"size":"80"}]}}},"dtype":{"type":"DT_FLOAT"}}},
          {"name":"PartitionedCall/transpose_71/perm","op":"Const","attr":{"dtype":{"type":"DT_INT32"},"value":{"tensor":{"dtype":"DT_INT32","tensorShape":{"dim":[{"size":"4"}]}}}}},
          {"name":"PartitionedCall/split_12","op":"Const","attr":{"dtype":{"type":"DT_FLOAT"},"value":{"tensor":{"dtype":"DT_FLOAT","tensorShape":{"dim":[{"size":"1"},{"size":"1"},{"size":"80"},{"size":"480"}]}}}}},
          {"name":"unknown_36","op":"Const","attr":{"value":{"tensor":{"dtype":"DT_FLOAT","tensorShape":{"dim":[{"size":"480"}]}}},"dtype":{"type":"DT_FLOAT"}}},
          {"name":"PartitionedCall/transpose_56/perm","op":"Const","attr":{"dtype":{"type":"DT_INT32"},"value":{"tensor":{"dtype":"DT_INT32","tensorShape":{"dim":[{"size":"4"}]}}}}},
          {"name":"PartitionedCall/clip_by_value_12/Minimum/y","op":"Const","attr":{"dtype":{"type":"DT_FLOAT"},"value":{"tensor":{"dtype":"DT_FLOAT","tensorShape":{}}}}},
          {"name":"PartitionedCall/clip_by_value_12/y","op":"Const","attr":{"value":{"tensor":{"dtype":"DT_FLOAT","tensorShape":{}}},"dtype":{"type":"DT_FLOAT"}}},
          {"name":"PartitionedCall/Const_33","op":"Const","attr":{"value":{"tensor":{"dtype":"DT_INT32","tensorShape":{"dim":[{"size":"4"},{"size":"2"}]}}},"dtype":{"type":"DT_INT32"}}},
          {"name":"PartitionedCall/transpose_58/perm","op":"Const","attr":{"value":{"tensor":{"dtype":"DT_INT32","tensorShape":{"dim":[{"size":"4"}]}}},"dtype":{"type":"DT_INT32"}}},
          {"name":"PartitionedCall/Reshape_6","op":"Const","attr":{"value":{"tensor":{"dtype":"DT_FLOAT","tensorShape":{"dim":[{"size":"3"},{"size":"3"},{"size":"480"},{"size":"1"}]}}},"dtype":{"type":"DT_FLOAT"}}},
          {"name":"unknown_38","op":"Const","attr":{"dtype":{"type":"DT_FLOAT"},"value":{"tensor":{"dtype":"DT_FLOAT","tensorShape":{"dim":[{"size":"480"}]}}}}},
          {"name":"PartitionedCall/transpose_59/perm","op":"Const","attr":{"dtype":{"type":"DT_INT32"},"value":{"tensor":{"dtype":"DT_INT32","tensorShape":{"dim":[{"size":"4"}]}}}}},
          {"name":"PartitionedCall/clip_by_value_13/Minimum/y","op":"Const","attr":{"dtype":{"type":"DT_FLOAT"},"value":{"tensor":{"dtype":"DT_FLOAT","tensorShape":{}}}}},
          {"name":"PartitionedCall/clip_by_value_13/y","op":"Const","attr":{"value":{"tensor":{"dtype":"DT_FLOAT","tensorShape":{}}},"dtype":{"type":"DT_FLOAT"}}},
          {"name":"PartitionedCall/transpose_61/perm","op":"Const","attr":{"dtype":{"type":"DT_INT32"},"value":{"tensor":{"dtype":"DT_INT32","tensorShape":{"dim":[{"size":"4"}]}}}}},
          {"name":"PartitionedCall/split_13","op":"Const","attr":{"dtype":{"type":"DT_FLOAT"},"value":{"tensor":{"dtype":"DT_FLOAT","tensorShape":{"dim":[{"size":"1"},{"size":"1"},{"size":"480"},{"size":"80"}]}}}}},
          {"name":"unknown_40","op":"Const","attr":{"value":{"tensor":{"dtype":"DT_FLOAT","tensorShape":{"dim":[{"size":"80"}]}}},"dtype":{"type":"DT_FLOAT"}}},
          {"name":"PartitionedCall/transpose_62/perm","op":"Const","attr":{"dtype":{"type":"DT_INT32"},"value":{"tensor":{"dtype":"DT_INT32","tensorShape":{"dim":[{"size":"4"}]}}}}},
          {"name":"PartitionedCall/split_8","op":"Const","attr":{"dtype":{"type":"DT_FLOAT"},"value":{"tensor":{"dtype":"DT_FLOAT","tensorShape":{"dim":[{"size":"1"},{"size":"1"},{"size":"40"},{"size":"240"}]}}}}},
          {"name":"unknown_24","op":"Const","attr":{"dtype":{"type":"DT_FLOAT"},"value":{"tensor":{"dtype":"DT_FLOAT","tensorShape":{"dim":[{"size":"240"}]}}}}},
          {"name":"PartitionedCall/transpose_38/perm","op":"Const","attr":{"value":{"tensor":{"dtype":"DT_INT32","tensorShape":{"dim":[{"size":"4"}]}}},"dtype":{"type":"DT_INT32"}}},
          {"name":"PartitionedCall/clip_by_value_8/Minimum/y","op":"Const","attr":{"dtype":{"type":"DT_FLOAT"},"value":{"tensor":{"dtype":"DT_FLOAT","tensorShape":{}}}}},
          {"name":"PartitionedCall/clip_by_value_8/y","op":"Const","attr":{"dtype":{"type":"DT_FLOAT"},"value":{"tensor":{"dtype":"DT_FLOAT","tensorShape":{}}}}},
          {"name":"PartitionedCall/Const_23","op":"Const","attr":{"value":{"tensor":{"dtype":"DT_INT32","tensorShape":{"dim":[{"size":"4"},{"size":"2"}]}}},"dtype":{"type":"DT_INT32"}}},
          {"name":"PartitionedCall/transpose_40/perm","op":"Const","attr":{"dtype":{"type":"DT_INT32"},"value":{"tensor":{"dtype":"DT_INT32","tensorShape":{"dim":[{"size":"4"}]}}}}},
          {"name":"PartitionedCall/Reshape_4","op":"Const","attr":{"dtype":{"type":"DT_FLOAT"},"value":{"tensor":{"dtype":"DT_FLOAT","tensorShape":{"dim":[{"size":"5"},{"size":"5"},{"size":"240"},{"size":"1"}]}}}}},
          {"name":"unknown_26","op":"Const","attr":{"dtype":{"type":"DT_FLOAT"},"value":{"tensor":{"dtype":"DT_FLOAT","tensorShape":{"dim":[{"size":"240"}]}}}}},
          {"name":"PartitionedCall/transpose_41/perm","op":"Const","attr":{"dtype":{"type":"DT_INT32"},"value":{"tensor":{"dtype":"DT_INT32","tensorShape":{"dim":[{"size":"4"}]}}}}},
          {"name":"PartitionedCall/clip_by_value_9/Minimum/y","op":"Const","attr":{"dtype":{"type":"DT_FLOAT"},"value":{"tensor":{"dtype":"DT_FLOAT","tensorShape":{}}}}},
          {"name":"PartitionedCall/clip_by_value_9/y","op":"Const","attr":{"value":{"tensor":{"dtype":"DT_FLOAT","tensorShape":{}}},"dtype":{"type":"DT_FLOAT"}}},
          {"name":"PartitionedCall/transpose_43/perm","op":"Const","attr":{"dtype":{"type":"DT_INT32"},"value":{"tensor":{"dtype":"DT_INT32","tensorShape":{"dim":[{"size":"4"}]}}}}},
          {"name":"PartitionedCall/split_9","op":"Const","attr":{"dtype":{"type":"DT_FLOAT"},"value":{"tensor":{"dtype":"DT_FLOAT","tensorShape":{"dim":[{"size":"1"},{"size":"1"},{"size":"240"},{"size":"40"}]}}}}},
          {"name":"unknown_28","op":"Const","attr":{"value":{"tensor":{"dtype":"DT_FLOAT","tensorShape":{"dim":[{"size":"40"}]}}},"dtype":{"type":"DT_FLOAT"}}},
          {"name":"PartitionedCall/transpose_44/perm","op":"Const","attr":{"dtype":{"type":"DT_INT32"},"value":{"tensor":{"dtype":"DT_INT32","tensorShape":{"dim":[{"size":"4"}]}}}}},
          {"name":"PartitionedCall/split_4","op":"Const","attr":{"value":{"tensor":{"dtype":"DT_FLOAT","tensorShape":{"dim":[{"size":"1"},{"size":"1"},{"size":"24"},{"size":"144"}]}}},"dtype":{"type":"DT_FLOAT"}}},
          {"name":"unknown_12","op":"Const","attr":{"dtype":{"type":"DT_FLOAT"},"value":{"tensor":{"dtype":"DT_FLOAT","tensorShape":{"dim":[{"size":"144"}]}}}}},
          {"name":"PartitionedCall/transpose_20/perm","op":"Const","attr":{"value":{"tensor":{"dtype":"DT_INT32","tensorShape":{"dim":[{"size":"4"}]}}},"dtype":{"type":"DT_INT32"}}},
          {"name":"PartitionedCall/clip_by_value_4/Minimum/y","op":"Const","attr":{"dtype":{"type":"DT_FLOAT"},"value":{"tensor":{"dtype":"DT_FLOAT","tensorShape":{}}}}},
          {"name":"PartitionedCall/clip_by_value_4/y","op":"Const","attr":{"dtype":{"type":"DT_FLOAT"},"value":{"tensor":{"dtype":"DT_FLOAT","tensorShape":{}}}}},
          {"name":"PartitionedCall/Const_13","op":"Const","attr":{"value":{"tensor":{"dtype":"DT_INT32","tensorShape":{"dim":[{"size":"4"},{"size":"2"}]}}},"dtype":{"type":"DT_INT32"}}},
          {"name":"PartitionedCall/transpose_22/perm","op":"Const","attr":{"dtype":{"type":"DT_INT32"},"value":{"tensor":{"dtype":"DT_INT32","tensorShape":{"dim":[{"size":"4"}]}}}}},
          {"name":"PartitionedCall/Reshape_2","op":"Const","attr":{"value":{"tensor":{"dtype":"DT_FLOAT","tensorShape":{"dim":[{"size":"3"},{"size":"3"},{"size":"144"},{"size":"1"}]}}},"dtype":{"type":"DT_FLOAT"}}},
          {"name":"unknown_14","op":"Const","attr":{"value":{"tensor":{"dtype":"DT_FLOAT","tensorShape":{"dim":[{"size":"144"}]}}},"dtype":{"type":"DT_FLOAT"}}},
          {"name":"PartitionedCall/transpose_23/perm","op":"Const","attr":{"value":{"tensor":{"dtype":"DT_INT32","tensorShape":{"dim":[{"size":"4"}]}}},"dtype":{"type":"DT_INT32"}}},
          {"name":"PartitionedCall/clip_by_value_5/Minimum/y","op":"Const","attr":{"value":{"tensor":{"dtype":"DT_FLOAT","tensorShape":{}}},"dtype":{"type":"DT_FLOAT"}}},
          {"name":"PartitionedCall/clip_by_value_5/y","op":"Const","attr":{"value":{"tensor":{"dtype":"DT_FLOAT","tensorShape":{}}},"dtype":{"type":"DT_FLOAT"}}},
          {"name":"PartitionedCall/transpose_25/perm","op":"Const","attr":{"value":{"tensor":{"dtype":"DT_INT32","tensorShape":{"dim":[{"size":"4"}]}}},"dtype":{"type":"DT_INT32"}}},
          {"name":"PartitionedCall/split_5","op":"Const","attr":{"value":{"tensor":{"dtype":"DT_FLOAT","tensorShape":{"dim":[{"size":"1"},{"size":"1"},{"size":"144"},{"size":"24"}]}}},"dtype":{"type":"DT_FLOAT"}}},
          {"name":"unknown_16","op":"Const","attr":{"dtype":{"type":"DT_FLOAT"},"value":{"tensor":{"dtype":"DT_FLOAT","tensorShape":{"dim":[{"size":"24"}]}}}}},
          {"name":"PartitionedCall/transpose_26/perm","op":"Const","attr":{"value":{"tensor":{"dtype":"DT_INT32","tensorShape":{"dim":[{"size":"4"}]}}},"dtype":{"type":"DT_INT32"}}},
          {"name":"PartitionedCall/Const","op":"Const","attr":{"dtype":{"type":"DT_INT32"},"value":{"tensor":{"dtype":"DT_INT32","tensorShape":{"dim":[{"size":"4"},{"size":"2"}]}}}}},
          {"name":"PartitionedCall/transpose_1/perm","op":"Const","attr":{"dtype":{"type":"DT_INT32"},"value":{"tensor":{"dtype":"DT_INT32","tensorShape":{"dim":[{"size":"4"}]}}}}},
          {"name":"PartitionedCall/split","op":"Const","attr":{"value":{"tensor":{"dtype":"DT_FLOAT","tensorShape":{"dim":[{"size":"3"},{"size":"3"},{"size":"3"},{"size":"32"}]}}},"dtype":{"type":"DT_FLOAT"}}},
          {"name":"unknown_0","op":"Const","attr":{"value":{"tensor":{"dtype":"DT_FLOAT","tensorShape":{"dim":[{"size":"32"}]}}},"dtype":{"type":"DT_FLOAT"}}},
          {"name":"PartitionedCall/transpose_2/perm","op":"Const","attr":{"dtype":{"type":"DT_INT32"},"value":{"tensor":{"dtype":"DT_INT32","tensorShape":{"dim":[{"size":"4"}]}}}}},
          {"name":"PartitionedCall/clip_by_value/Minimum/y","op":"Const","attr":{"dtype":{"type":"DT_FLOAT"},"value":{"tensor":{"dtype":"DT_FLOAT","tensorShape":{}}}}},
          {"name":"PartitionedCall/clip_by_value/y","op":"Const","attr":{"dtype":{"type":"DT_FLOAT"},"value":{"tensor":{"dtype":"DT_FLOAT","tensorShape":{}}}}},
          {"name":"PartitionedCall/Const_3","op":"Const","attr":{"value":{"tensor":{"dtype":"DT_INT32","tensorShape":{"dim":[{"size":"4"},{"size":"2"}]}}},"dtype":{"type":"DT_INT32"}}},
          {"name":"PartitionedCall/transpose_4/perm","op":"Const","attr":{"value":{"tensor":{"dtype":"DT_INT32","tensorShape":{"dim":[{"size":"4"}]}}},"dtype":{"type":"DT_INT32"}}},
          {"name":"PartitionedCall/Reshape","op":"Const","attr":{"dtype":{"type":"DT_FLOAT"},"value":{"tensor":{"dtype":"DT_FLOAT","tensorShape":{"dim":[{"size":"3"},{"size":"3"},{"size":"32"},{"size":"1"}]}}}}},
          {"name":"unknown_2","op":"Const","attr":{"dtype":{"type":"DT_FLOAT"},"value":{"tensor":{"dtype":"DT_FLOAT","tensorShape":{"dim":[{"size":"32"}]}}}}},
          {"name":"PartitionedCall/transpose_5/perm","op":"Const","attr":{"dtype":{"type":"DT_INT32"},"value":{"tensor":{"dtype":"DT_INT32","tensorShape":{"dim":[{"size":"4"}]}}}}},
          {"name":"PartitionedCall/clip_by_value_1/Minimum/y","op":"Const","attr":{"dtype":{"type":"DT_FLOAT"},"value":{"tensor":{"dtype":"DT_FLOAT","tensorShape":{}}}}},
          {"name":"PartitionedCall/clip_by_value_1/y","op":"Const","attr":{"dtype":{"type":"DT_FLOAT"},"value":{"tensor":{"dtype":"DT_FLOAT","tensorShape":{}}}}},
          {"name":"PartitionedCall/transpose_7/perm","op":"Const","attr":{"dtype":{"type":"DT_INT32"},"value":{"tensor":{"dtype":"DT_INT32","tensorShape":{"dim":[{"size":"4"}]}}}}},
          {"name":"PartitionedCall/split_1","op":"Const","attr":{"dtype":{"type":"DT_FLOAT"},"value":{"tensor":{"dtype":"DT_FLOAT","tensorShape":{"dim":[{"size":"1"},{"size":"1"},{"size":"32"},{"size":"16"}]}}}}},
          {"name":"unknown_4","op":"Const","attr":{"value":{"tensor":{"dtype":"DT_FLOAT","tensorShape":{"dim":[{"size":"16"}]}}},"dtype":{"type":"DT_FLOAT"}}},
          {"name":"PartitionedCall/split_2","op":"Const","attr":{"value":{"tensor":{"dtype":"DT_FLOAT","tensorShape":{"dim":[{"size":"1"},{"size":"1"},{"size":"16"},{"size":"96"}]}}},"dtype":{"type":"DT_FLOAT"}}},
          {"name":"unknown_6","op":"Const","attr":{"dtype":{"type":"DT_FLOAT"},"value":{"tensor":{"dtype":"DT_FLOAT","tensorShape":{"dim":[{"size":"96"}]}}}}},
          {"name":"PartitionedCall/transpose_11/perm","op":"Const","attr":{"dtype":{"type":"DT_INT32"},"value":{"tensor":{"dtype":"DT_INT32","tensorShape":{"dim":[{"size":"4"}]}}}}},
          {"name":"PartitionedCall/clip_by_value_2/Minimum/y","op":"Const","attr":{"value":{"tensor":{"dtype":"DT_FLOAT","tensorShape":{}}},"dtype":{"type":"DT_FLOAT"}}},
          {"name":"PartitionedCall/clip_by_value_2/y","op":"Const","attr":{"value":{"tensor":{"dtype":"DT_FLOAT","tensorShape":{}}},"dtype":{"type":"DT_FLOAT"}}},
          {"name":"PartitionedCall/Const_8","op":"Const","attr":{"dtype":{"type":"DT_INT32"},"value":{"tensor":{"dtype":"DT_INT32","tensorShape":{"dim":[{"size":"4"},{"size":"2"}]}}}}},
          {"name":"PartitionedCall/transpose_13/perm","op":"Const","attr":{"value":{"tensor":{"dtype":"DT_INT32","tensorShape":{"dim":[{"size":"4"}]}}},"dtype":{"type":"DT_INT32"}}},
          {"name":"PartitionedCall/Reshape_1","op":"Const","attr":{"value":{"tensor":{"dtype":"DT_FLOAT","tensorShape":{"dim":[{"size":"3"},{"size":"3"},{"size":"96"},{"size":"1"}]}}},"dtype":{"type":"DT_FLOAT"}}},
          {"name":"unknown_8","op":"Const","attr":{"dtype":{"type":"DT_FLOAT"},"value":{"tensor":{"dtype":"DT_FLOAT","tensorShape":{"dim":[{"size":"96"}]}}}}},
          {"name":"PartitionedCall/transpose_14/perm","op":"Const","attr":{"value":{"tensor":{"dtype":"DT_INT32","tensorShape":{"dim":[{"size":"4"}]}}},"dtype":{"type":"DT_INT32"}}},
          {"name":"PartitionedCall/clip_by_value_3/Minimum/y","op":"Const","attr":{"value":{"tensor":{"dtype":"DT_FLOAT","tensorShape":{}}},"dtype":{"type":"DT_FLOAT"}}},
          {"name":"PartitionedCall/clip_by_value_3/y","op":"Const","attr":{"value":{"tensor":{"dtype":"DT_FLOAT","tensorShape":{}}},"dtype":{"type":"DT_FLOAT"}}},
          {"name":"PartitionedCall/transpose_16/perm","op":"Const","attr":{"value":{"tensor":{"dtype":"DT_INT32","tensorShape":{"dim":[{"size":"4"}]}}},"dtype":{"type":"DT_INT32"}}},
          {"name":"PartitionedCall/split_3","op":"Const","attr":{"value":{"tensor":{"dtype":"DT_FLOAT","tensorShape":{"dim":[{"size":"1"},{"size":"1"},{"size":"96"},{"size":"24"}]}}},"dtype":{"type":"DT_FLOAT"}}},
          {"name":"unknown_10","op":"Const","attr":{"value":{"tensor":{"dtype":"DT_FLOAT","tensorShape":{"dim":[{"size":"24"}]}}},"dtype":{"type":"DT_FLOAT"}}},
          {"name":"PartitionedCall/transpose_17/perm","op":"Const","attr":{"dtype":{"type":"DT_INT32"},"value":{"tensor":{"dtype":"DT_INT32","tensorShape":{"dim":[{"size":"4"}]}}}}},
          {"name":"PartitionedCall/transpose_28/perm","op":"Const","attr":{"value":{"tensor":{"dtype":"DT_INT32","tensorShape":{"dim":[{"size":"4"}]}}},"dtype":{"type":"DT_INT32"}}},
          {"name":"PartitionedCall/split_6","op":"Const","attr":{"dtype":{"type":"DT_FLOAT"},"value":{"tensor":{"dtype":"DT_FLOAT","tensorShape":{"dim":[{"size":"1"},{"size":"1"},{"size":"24"},{"size":"144"}]}}}}},
          {"name":"unknown_18","op":"Const","attr":{"value":{"tensor":{"dtype":"DT_FLOAT","tensorShape":{"dim":[{"size":"144"}]}}},"dtype":{"type":"DT_FLOAT"}}},
          {"name":"PartitionedCall/transpose_29/perm","op":"Const","attr":{"dtype":{"type":"DT_INT32"},"value":{"tensor":{"dtype":"DT_INT32","tensorShape":{"dim":[{"size":"4"}]}}}}},
          {"name":"PartitionedCall/clip_by_value_6/Minimum/y","op":"Const","attr":{"dtype":{"type":"DT_FLOAT"},"value":{"tensor":{"dtype":"DT_FLOAT","tensorShape":{}}}}},
          {"name":"PartitionedCall/clip_by_value_6/y","op":"Const","attr":{"dtype":{"type":"DT_FLOAT"},"value":{"tensor":{"dtype":"DT_FLOAT","tensorShape":{}}}}},
          {"name":"PartitionedCall/Const_18","op":"Const","attr":{"dtype":{"type":"DT_INT32"},"value":{"tensor":{"dtype":"DT_INT32","tensorShape":{"dim":[{"size":"4"},{"size":"2"}]}}}}},
          {"name":"PartitionedCall/transpose_31/perm","op":"Const","attr":{"value":{"tensor":{"dtype":"DT_INT32","tensorShape":{"dim":[{"size":"4"}]}}},"dtype":{"type":"DT_INT32"}}},
          {"name":"PartitionedCall/Reshape_3","op":"Const","attr":{"value":{"tensor":{"dtype":"DT_FLOAT","tensorShape":{"dim":[{"size":"5"},{"size":"5"},{"size":"144"},{"size":"1"}]}}},"dtype":{"type":"DT_FLOAT"}}},
          {"name":"unknown_20","op":"Const","attr":{"dtype":{"type":"DT_FLOAT"},"value":{"tensor":{"dtype":"DT_FLOAT","tensorShape":{"dim":[{"size":"144"}]}}}}},
          {"name":"PartitionedCall/transpose_32/perm","op":"Const","attr":{"dtype":{"type":"DT_INT32"},"value":{"tensor":{"dtype":"DT_INT32","tensorShape":{"dim":[{"size":"4"}]}}}}},
          {"name":"PartitionedCall/clip_by_value_7/Minimum/y","op":"Const","attr":{"value":{"tensor":{"dtype":"DT_FLOAT","tensorShape":{}}},"dtype":{"type":"DT_FLOAT"}}},
          {"name":"PartitionedCall/clip_by_value_7/y","op":"Const","attr":{"value":{"tensor":{"dtype":"DT_FLOAT","tensorShape":{}}},"dtype":{"type":"DT_FLOAT"}}},
          {"name":"PartitionedCall/transpose_34/perm","op":"Const","attr":{"value":{"tensor":{"dtype":"DT_INT32","tensorShape":{"dim":[{"size":"4"}]}}},"dtype":{"type":"DT_INT32"}}},
          {"name":"PartitionedCall/split_7","op":"Const","attr":{"value":{"tensor":{"dtype":"DT_FLOAT","tensorShape":{"dim":[{"size":"1"},{"size":"1"},{"size":"144"},{"size":"40"}]}}},"dtype":{"type":"DT_FLOAT"}}},
          {"name":"unknown_22","op":"Const","attr":{"dtype":{"type":"DT_FLOAT"},"value":{"tensor":{"dtype":"DT_FLOAT","tensorShape":{"dim":[{"size":"40"}]}}}}},
          {"name":"PartitionedCall/transpose_35/perm","op":"Const","attr":{"value":{"tensor":{"dtype":"DT_INT32","tensorShape":{"dim":[{"size":"4"}]}}},"dtype":{"type":"DT_INT32"}}},
          {"name":"PartitionedCall/transpose_46/perm","op":"Const","attr":{"value":{"tensor":{"dtype":"DT_INT32","tensorShape":{"dim":[{"size":"4"}]}}},"dtype":{"type":"DT_INT32"}}},
          {"name":"PartitionedCall/split_10","op":"Const","attr":{"dtype":{"type":"DT_FLOAT"},"value":{"tensor":{"dtype":"DT_FLOAT","tensorShape":{"dim":[{"size":"1"},{"size":"1"},{"size":"40"},{"size":"240"}]}}}}},
          {"name":"unknown_30","op":"Const","attr":{"value":{"tensor":{"dtype":"DT_FLOAT","tensorShape":{"dim":[{"size":"240"}]}}},"dtype":{"type":"DT_FLOAT"}}},
          {"name":"PartitionedCall/transpose_47/perm","op":"Const","attr":{"value":{"tensor":{"dtype":"DT_INT32","tensorShape":{"dim":[{"size":"4"}]}}},"dtype":{"type":"DT_INT32"}}},
          {"name":"PartitionedCall/clip_by_value_10/Minimum/y","op":"Const","attr":{"dtype":{"type":"DT_FLOAT"},"value":{"tensor":{"dtype":"DT_FLOAT","tensorShape":{}}}}},
          {"name":"PartitionedCall/clip_by_value_10/y","op":"Const","attr":{"dtype":{"type":"DT_FLOAT"},"value":{"tensor":{"dtype":"DT_FLOAT","tensorShape":{}}}}},
          {"name":"PartitionedCall/Const_28","op":"Const","attr":{"value":{"tensor":{"dtype":"DT_INT32","tensorShape":{"dim":[{"size":"4"},{"size":"2"}]}}},"dtype":{"type":"DT_INT32"}}},
          {"name":"PartitionedCall/transpose_49/perm","op":"Const","attr":{"dtype":{"type":"DT_INT32"},"value":{"tensor":{"dtype":"DT_INT32","tensorShape":{"dim":[{"size":"4"}]}}}}},
          {"name":"PartitionedCall/Reshape_5","op":"Const","attr":{"value":{"tensor":{"dtype":"DT_FLOAT","tensorShape":{"dim":[{"size":"3"},{"size":"3"},{"size":"240"},{"size":"1"}]}}},"dtype":{"type":"DT_FLOAT"}}},
          {"name":"unknown_32","op":"Const","attr":{"value":{"tensor":{"dtype":"DT_FLOAT","tensorShape":{"dim":[{"size":"240"}]}}},"dtype":{"type":"DT_FLOAT"}}},
          {"name":"PartitionedCall/transpose_50/perm","op":"Const","attr":{"value":{"tensor":{"dtype":"DT_INT32","tensorShape":{"dim":[{"size":"4"}]}}},"dtype":{"type":"DT_INT32"}}},
          {"name":"PartitionedCall/clip_by_value_11/Minimum/y","op":"Const","attr":{"value":{"tensor":{"dtype":"DT_FLOAT","tensorShape":{}}},"dtype":{"type":"DT_FLOAT"}}},
          {"name":"PartitionedCall/clip_by_value_11/y","op":"Const","attr":{"dtype":{"type":"DT_FLOAT"},"value":{"tensor":{"dtype":"DT_FLOAT","tensorShape":{}}}}},
          {"name":"PartitionedCall/transpose_52/perm","op":"Const","attr":{"dtype":{"type":"DT_INT32"},"value":{"tensor":{"dtype":"DT_INT32","tensorShape":{"dim":[{"size":"4"}]}}}}},
          {"name":"PartitionedCall/split_11","op":"Const","attr":{"value":{"tensor":{"dtype":"DT_FLOAT","tensorShape":{"dim":[{"size":"1"},{"size":"1"},{"size":"240"},{"size":"80"}]}}},"dtype":{"type":"DT_FLOAT"}}},
          {"name":"unknown_34","op":"Const","attr":{"value":{"tensor":{"dtype":"DT_FLOAT","tensorShape":{"dim":[{"size":"80"}]}}},"dtype":{"type":"DT_FLOAT"}}},
          {"name":"PartitionedCall/transpose_53/perm","op":"Const","attr":{"dtype":{"type":"DT_INT32"},"value":{"tensor":{"dtype":"DT_INT32","tensorShape":{"dim":[{"size":"4"}]}}}}},
          {"name":"PartitionedCall/transpose_73/perm","op":"Const","attr":{"value":{"tensor":{"dtype":"DT_INT32","tensorShape":{"dim":[{"size":"4"}]}}},"dtype":{"type":"DT_INT32"}}},
          {"name":"PartitionedCall/split_16","op":"Const","attr":{"dtype":{"type":"DT_FLOAT"},"value":{"tensor":{"dtype":"DT_FLOAT","tensorShape":{"dim":[{"size":"1"},{"size":"1"},{"size":"80"},{"size":"480"}]}}}}},
          {"name":"unknown_48","op":"Const","attr":{"value":{"tensor":{"dtype":"DT_FLOAT","tensorShape":{"dim":[{"size":"480"}]}}},"dtype":{"type":"DT_FLOAT"}}},
          {"name":"PartitionedCall/transpose_74/perm","op":"Const","attr":{"dtype":{"type":"DT_INT32"},"value":{"tensor":{"dtype":"DT_INT32","tensorShape":{"dim":[{"size":"4"}]}}}}},
          {"name":"PartitionedCall/clip_by_value_16/Minimum/y","op":"Const","attr":{"value":{"tensor":{"dtype":"DT_FLOAT","tensorShape":{}}},"dtype":{"type":"DT_FLOAT"}}},
          {"name":"PartitionedCall/clip_by_value_16/y","op":"Const","attr":{"value":{"tensor":{"dtype":"DT_FLOAT","tensorShape":{}}},"dtype":{"type":"DT_FLOAT"}}},
          {"name":"PartitionedCall/Const_43","op":"Const","attr":{"dtype":{"type":"DT_INT32"},"value":{"tensor":{"dtype":"DT_INT32","tensorShape":{"dim":[{"size":"4"},{"size":"2"}]}}}}},
          {"name":"PartitionedCall/transpose_76/perm","op":"Const","attr":{"dtype":{"type":"DT_INT32"},"value":{"tensor":{"dtype":"DT_INT32","tensorShape":{"dim":[{"size":"4"}]}}}}},
          {"name":"PartitionedCall/Reshape_8","op":"Const","attr":{"dtype":{"type":"DT_FLOAT"},"value":{"tensor":{"dtype":"DT_FLOAT","tensorShape":{"dim":[{"size":"5"},{"size":"5"},{"size":"480"},{"size":"1"}]}}}}},
          {"name":"unknown_50","op":"Const","attr":{"value":{"tensor":{"dtype":"DT_FLOAT","tensorShape":{"dim":[{"size":"480"}]}}},"dtype":{"type":"DT_FLOAT"}}},
          {"name":"PartitionedCall/transpose_77/perm","op":"Const","attr":{"value":{"tensor":{"dtype":"DT_INT32","tensorShape":{"dim":[{"size":"4"}]}}},"dtype":{"type":"DT_INT32"}}},
          {"name":"PartitionedCall/clip_by_value_17/Minimum/y","op":"Const","attr":{"dtype":{"type":"DT_FLOAT"},"value":{"tensor":{"dtype":"DT_FLOAT","tensorShape":{}}}}},
          {"name":"PartitionedCall/clip_by_value_17/y","op":"Const","attr":{"dtype":{"type":"DT_FLOAT"},"value":{"tensor":{"dtype":"DT_FLOAT","tensorShape":{}}}}},
          {"name":"PartitionedCall/transpose_79/perm","op":"Const","attr":{"value":{"tensor":{"dtype":"DT_INT32","tensorShape":{"dim":[{"size":"4"}]}}},"dtype":{"type":"DT_INT32"}}},
          {"name":"PartitionedCall/split_17","op":"Const","attr":{"value":{"tensor":{"dtype":"DT_FLOAT","tensorShape":{"dim":[{"size":"1"},{"size":"1"},{"size":"480"},{"size":"112"}]}}},"dtype":{"type":"DT_FLOAT"}}},
          {"name":"unknown_52","op":"Const","attr":{"dtype":{"type":"DT_FLOAT"},"value":{"tensor":{"dtype":"DT_FLOAT","tensorShape":{"dim":[{"size":"112"}]}}}}},
          {"name":"PartitionedCall/transpose_80/perm","op":"Const","attr":{"dtype":{"type":"DT_INT32"},"value":{"tensor":{"dtype":"DT_INT32","tensorShape":{"dim":[{"size":"4"}]}}}}},
          {"name":"PartitionedCall/transpose_100/perm","op":"Const","attr":{"value":{"tensor":{"dtype":"DT_INT32","tensorShape":{"dim":[{"size":"4"}]}}},"dtype":{"type":"DT_INT32"}}},
          {"name":"PartitionedCall/split_22","op":"Const","attr":{"dtype":{"type":"DT_FLOAT"},"value":{"tensor":{"dtype":"DT_FLOAT","tensorShape":{"dim":[{"size":"1"},{"size":"1"},{"size":"112"},{"size":"672"}]}}}}},
          {"name":"unknown_66","op":"Const","attr":{"value":{"tensor":{"dtype":"DT_FLOAT","tensorShape":{"dim":[{"size":"672"}]}}},"dtype":{"type":"DT_FLOAT"}}},
          {"name":"PartitionedCall/transpose_101/perm","op":"Const","attr":{"dtype":{"type":"DT_INT32"},"value":{"tensor":{"dtype":"DT_INT32","tensorShape":{"dim":[{"size":"4"}]}}}}},
          {"name":"PartitionedCall/clip_by_value_22/Minimum/y","op":"Const","attr":{"value":{"tensor":{"dtype":"DT_FLOAT","tensorShape":{}}},"dtype":{"type":"DT_FLOAT"}}},
          {"name":"PartitionedCall/clip_by_value_22/y","op":"Const","attr":{"dtype":{"type":"DT_FLOAT"},"value":{"tensor":{"dtype":"DT_FLOAT","tensorShape":{}}}}},
          {"name":"PartitionedCall/Const_58","op":"Const","attr":{"value":{"tensor":{"dtype":"DT_INT32","tensorShape":{"dim":[{"size":"4"},{"size":"2"}]}}},"dtype":{"type":"DT_INT32"}}},
          {"name":"PartitionedCall/transpose_103/perm","op":"Const","attr":{"value":{"tensor":{"dtype":"DT_INT32","tensorShape":{"dim":[{"size":"4"}]}}},"dtype":{"type":"DT_INT32"}}},
          {"name":"PartitionedCall/Reshape_11","op":"Const","attr":{"dtype":{"type":"DT_FLOAT"},"value":{"tensor":{"dtype":"DT_FLOAT","tensorShape":{"dim":[{"size":"5"},{"size":"5"},{"size":"672"},{"size":"1"}]}}}}},
          {"name":"unknown_68","op":"Const","attr":{"dtype":{"type":"DT_FLOAT"},"value":{"tensor":{"dtype":"DT_FLOAT","tensorShape":{"dim":[{"size":"672"}]}}}}},
          {"name":"PartitionedCall/transpose_104/perm","op":"Const","attr":{"value":{"tensor":{"dtype":"DT_INT32","tensorShape":{"dim":[{"size":"4"}]}}},"dtype":{"type":"DT_INT32"}}},
          {"name":"PartitionedCall/clip_by_value_23/Minimum/y","op":"Const","attr":{"value":{"tensor":{"dtype":"DT_FLOAT","tensorShape":{}}},"dtype":{"type":"DT_FLOAT"}}},
          {"name":"PartitionedCall/clip_by_value_23/y","op":"Const","attr":{"value":{"tensor":{"dtype":"DT_FLOAT","tensorShape":{}}},"dtype":{"type":"DT_FLOAT"}}},
          {"name":"PartitionedCall/transpose_106/perm","op":"Const","attr":{"value":{"tensor":{"dtype":"DT_INT32","tensorShape":{"dim":[{"size":"4"}]}}},"dtype":{"type":"DT_INT32"}}},
          {"name":"PartitionedCall/split_23","op":"Const","attr":{"value":{"tensor":{"dtype":"DT_FLOAT","tensorShape":{"dim":[{"size":"1"},{"size":"1"},{"size":"672"},{"size":"192"}]}}},"dtype":{"type":"DT_FLOAT"}}},
          {"name":"unknown_70","op":"Const","attr":{"value":{"tensor":{"dtype":"DT_FLOAT","tensorShape":{"dim":[{"size":"192"}]}}},"dtype":{"type":"DT_FLOAT"}}},
          {"name":"PartitionedCall/transpose_107/perm","op":"Const","attr":{"dtype":{"type":"DT_INT32"},"value":{"tensor":{"dtype":"DT_INT32","tensorShape":{"dim":[{"size":"4"}]}}}}},
          {"name":"PartitionedCall/transpose_136/perm","op":"Const","attr":{"dtype":{"type":"DT_INT32"},"value":{"tensor":{"dtype":"DT_INT32","tensorShape":{"dim":[{"size":"4"}]}}}}},
          {"name":"PartitionedCall/split_30","op":"Const","attr":{"dtype":{"type":"DT_FLOAT"},"value":{"tensor":{"dtype":"DT_FLOAT","tensorShape":{"dim":[{"size":"1"},{"size":"1"},{"size":"192"},{"size":"1152"}]}}}}},
          {"name":"unknown_90","op":"Const","attr":{"dtype":{"type":"DT_FLOAT"},"value":{"tensor":{"dtype":"DT_FLOAT","tensorShape":{"dim":[{"size":"1152"}]}}}}},
          {"name":"PartitionedCall/transpose_137/perm","op":"Const","attr":{"value":{"tensor":{"dtype":"DT_INT32","tensorShape":{"dim":[{"size":"4"}]}}},"dtype":{"type":"DT_INT32"}}},
          {"name":"PartitionedCall/clip_by_value_30/Minimum/y","op":"Const","attr":{"dtype":{"type":"DT_FLOAT"},"value":{"tensor":{"dtype":"DT_FLOAT","tensorShape":{}}}}},
          {"name":"PartitionedCall/clip_by_value_30/y","op":"Const","attr":{"dtype":{"type":"DT_FLOAT"},"value":{"tensor":{"dtype":"DT_FLOAT","tensorShape":{}}}}},
          {"name":"PartitionedCall/Const_78","op":"Const","attr":{"dtype":{"type":"DT_INT32"},"value":{"tensor":{"dtype":"DT_INT32","tensorShape":{"dim":[{"size":"4"},{"size":"2"}]}}}}},
          {"name":"PartitionedCall/transpose_139/perm","op":"Const","attr":{"value":{"tensor":{"dtype":"DT_INT32","tensorShape":{"dim":[{"size":"4"}]}}},"dtype":{"type":"DT_INT32"}}},
          {"name":"PartitionedCall/Reshape_15","op":"Const","attr":{"value":{"tensor":{"dtype":"DT_FLOAT","tensorShape":{"dim":[{"size":"3"},{"size":"3"},{"size":"1152"},{"size":"1"}]}}},"dtype":{"type":"DT_FLOAT"}}},
          {"name":"unknown_92","op":"Const","attr":{"dtype":{"type":"DT_FLOAT"},"value":{"tensor":{"dtype":"DT_FLOAT","tensorShape":{"dim":[{"size":"1152"}]}}}}},
          {"name":"PartitionedCall/transpose_140/perm","op":"Const","attr":{"value":{"tensor":{"dtype":"DT_INT32","tensorShape":{"dim":[{"size":"4"}]}}},"dtype":{"type":"DT_INT32"}}},
          {"name":"PartitionedCall/clip_by_value_31/Minimum/y","op":"Const","attr":{"dtype":{"type":"DT_FLOAT"},"value":{"tensor":{"dtype":"DT_FLOAT","tensorShape":{}}}}},
          {"name":"PartitionedCall/clip_by_value_31/y","op":"Const","attr":{"value":{"tensor":{"dtype":"DT_FLOAT","tensorShape":{}}},"dtype":{"type":"DT_FLOAT"}}},
          {"name":"PartitionedCall/transpose_142/perm","op":"Const","attr":{"value":{"tensor":{"dtype":"DT_INT32","tensorShape":{"dim":[{"size":"4"}]}}},"dtype":{"type":"DT_INT32"}}},
          {"name":"PartitionedCall/split_31","op":"Const","attr":{"dtype":{"type":"DT_FLOAT"},"value":{"tensor":{"dtype":"DT_FLOAT","tensorShape":{"dim":[{"size":"1"},{"size":"1"},{"size":"1152"},{"size":"320"}]}}}}},
          {"name":"unknown_94","op":"Const","attr":{"value":{"tensor":{"dtype":"DT_FLOAT","tensorShape":{"dim":[{"size":"320"}]}}},"dtype":{"type":"DT_FLOAT"}}},
          {"name":"PartitionedCall/split_34","op":"Const","attr":{"value":{"tensor":{"dtype":"DT_FLOAT","tensorShape":{"dim":[{"size":"1"},{"size":"1"},{"size":"320"},{"size":"96"}]}}},"dtype":{"type":"DT_FLOAT"}}},
          {"name":"unknown_100","op":"Const","attr":{"dtype":{"type":"DT_FLOAT"},"value":{"tensor":{"dtype":"DT_FLOAT","tensorShape":{"dim":[{"size":"96"}]}}}}},
          {"name":"PartitionedCall/Cast_1","op":"Const","attr":{"value":{"tensor":{"dtype":"DT_INT32","tensorShape":{"dim":[{"size":"2"}]}}},"dtype":{"type":"DT_INT32"}}},
          {"name":"PartitionedCall/transpose_154/perm","op":"Const","attr":{"value":{"tensor":{"dtype":"DT_INT32","tensorShape":{"dim":[{"size":"4"}]}}},"dtype":{"type":"DT_INT32"}}},
          {"name":"PartitionedCall/transpose_155/perm","op":"Const","attr":{"value":{"tensor":{"dtype":"DT_INT32","tensorShape":{"dim":[{"size":"4"}]}}},"dtype":{"type":"DT_INT32"}}},
          {"name":"PartitionedCall/Cast_3","op":"Const","attr":{"value":{"tensor":{"dtype":"DT_INT32","tensorShape":{"dim":[{"size":"2"}]}}},"dtype":{"type":"DT_INT32"}}},
          {"name":"PartitionedCall/transpose_156/perm","op":"Const","attr":{"value":{"tensor":{"dtype":"DT_INT32","tensorShape":{"dim":[{"size":"4"}]}}},"dtype":{"type":"DT_INT32"}}},
          {"name":"PartitionedCall/Const_81","op":"Const","attr":{"value":{"tensor":{"dtype":"DT_INT32","tensorShape":{"dim":[{"size":"4"},{"size":"2"}]}}},"dtype":{"type":"DT_INT32"}}},
          {"name":"PartitionedCall/transpose_162/perm","op":"Const","attr":{"value":{"tensor":{"dtype":"DT_INT32","tensorShape":{"dim":[{"size":"4"}]}}},"dtype":{"type":"DT_INT32"}}},
          {"name":"PartitionedCall/Reshape_16","op":"Const","attr":{"dtype":{"type":"DT_FLOAT"},"value":{"tensor":{"dtype":"DT_FLOAT","tensorShape":{"dim":[{"size":"3"},{"size":"3"},{"size":"96"},{"size":"1"}]}}}}},
          {"name":"unknown_104","op":"Const","attr":{"value":{"tensor":{"dtype":"DT_FLOAT","tensorShape":{"dim":[{"size":"96"}]}}},"dtype":{"type":"DT_FLOAT"}}},
          {"name":"PartitionedCall/transpose_163/perm","op":"Const","attr":{"value":{"tensor":{"dtype":"DT_INT32","tensorShape":{"dim":[{"size":"4"}]}}},"dtype":{"type":"DT_INT32"}}},
          {"name":"PartitionedCall/clip_by_value_32/Minimum/y","op":"Const","attr":{"value":{"tensor":{"dtype":"DT_FLOAT","tensorShape":{}}},"dtype":{"type":"DT_FLOAT"}}},
          {"name":"PartitionedCall/clip_by_value_32/y","op":"Const","attr":{"value":{"tensor":{"dtype":"DT_FLOAT","tensorShape":{}}},"dtype":{"type":"DT_FLOAT"}}},
          {"name":"PartitionedCall/transpose_165/perm","op":"Const","attr":{"dtype":{"type":"DT_INT32"},"value":{"tensor":{"dtype":"DT_INT32","tensorShape":{"dim":[{"size":"4"}]}}}}},
          {"name":"PartitionedCall/split_35","op":"Const","attr":{"dtype":{"type":"DT_FLOAT"},"value":{"tensor":{"dtype":"DT_FLOAT","tensorShape":{"dim":[{"size":"1"},{"size":"1"},{"size":"96"},{"size":"96"}]}}}}},
          {"name":"unknown_106","op":"Const","attr":{"value":{"tensor":{"dtype":"DT_FLOAT","tensorShape":{"dim":[{"size":"96"}]}}},"dtype":{"type":"DT_FLOAT"}}},
          {"name":"PartitionedCall/transpose_166/perm","op":"Const","attr":{"dtype":{"type":"DT_INT32"},"value":{"tensor":{"dtype":"DT_INT32","tensorShape":{"dim":[{"size":"4"}]}}}}},
          {"name":"PartitionedCall/clip_by_value_33/Minimum/y","op":"Const","attr":{"dtype":{"type":"DT_FLOAT"},"value":{"tensor":{"dtype":"DT_FLOAT","tensorShape":{}}}}},
          {"name":"PartitionedCall/clip_by_value_33/y","op":"Const","attr":{"value":{"tensor":{"dtype":"DT_FLOAT","tensorShape":{}}},"dtype":{"type":"DT_FLOAT"}}},
          {"name":"PartitionedCall/Const_86","op":"Const","attr":{"dtype":{"type":"DT_INT32"},"value":{"tensor":{"dtype":"DT_INT32","tensorShape":{"dim":[{"size":"4"},{"size":"2"}]}}}}},
          {"name":"PartitionedCall/transpose_168/perm","op":"Const","attr":{"value":{"tensor":{"dtype":"DT_INT32","tensorShape":{"dim":[{"size":"4"}]}}},"dtype":{"type":"DT_INT32"}}},
          {"name":"PartitionedCall/Reshape_17","op":"Const","attr":{"dtype":{"type":"DT_FLOAT"},"value":{"tensor":{"dtype":"DT_FLOAT","tensorShape":{"dim":[{"size":"3"},{"size":"3"},{"size":"96"},{"size":"1"}]}}}}},
          {"name":"unknown_108","op":"Const","attr":{"dtype":{"type":"DT_FLOAT"},"value":{"tensor":{"dtype":"DT_FLOAT","tensorShape":{"dim":[{"size":"96"}]}}}}},
          {"name":"PartitionedCall/transpose_169/perm","op":"Const","attr":{"dtype":{"type":"DT_INT32"},"value":{"tensor":{"dtype":"DT_INT32","tensorShape":{"dim":[{"size":"4"}]}}}}},
          {"name":"PartitionedCall/clip_by_value_34/Minimum/y","op":"Const","attr":{"dtype":{"type":"DT_FLOAT"},"value":{"tensor":{"dtype":"DT_FLOAT","tensorShape":{}}}}},
          {"name":"PartitionedCall/clip_by_value_34/y","op":"Const","attr":{"value":{"tensor":{"dtype":"DT_FLOAT","tensorShape":{}}},"dtype":{"type":"DT_FLOAT"}}},
          {"name":"PartitionedCall/transpose_171/perm","op":"Const","attr":{"dtype":{"type":"DT_INT32"},"value":{"tensor":{"dtype":"DT_INT32","tensorShape":{"dim":[{"size":"4"}]}}}}},
          {"name":"PartitionedCall/split_36","op":"Const","attr":{"dtype":{"type":"DT_FLOAT"},"value":{"tensor":{"dtype":"DT_FLOAT","tensorShape":{"dim":[{"size":"1"},{"size":"1"},{"size":"96"},{"size":"96"}]}}}}},
          {"name":"unknown_110","op":"Const","attr":{"value":{"tensor":{"dtype":"DT_FLOAT","tensorShape":{"dim":[{"size":"96"}]}}},"dtype":{"type":"DT_FLOAT"}}},
          {"name":"PartitionedCall/transpose_172/perm","op":"Const","attr":{"value":{"tensor":{"dtype":"DT_INT32","tensorShape":{"dim":[{"size":"4"}]}}},"dtype":{"type":"DT_INT32"}}},
          {"name":"PartitionedCall/clip_by_value_35/Minimum/y","op":"Const","attr":{"dtype":{"type":"DT_FLOAT"},"value":{"tensor":{"dtype":"DT_FLOAT","tensorShape":{}}}}},
          {"name":"PartitionedCall/clip_by_value_35/y","op":"Const","attr":{"value":{"tensor":{"dtype":"DT_FLOAT","tensorShape":{}}},"dtype":{"type":"DT_FLOAT"}}},
          {"name":"PartitionedCall/transpose_174/perm","op":"Const","attr":{"dtype":{"type":"DT_INT32"},"value":{"tensor":{"dtype":"DT_INT32","tensorShape":{"dim":[{"size":"4"}]}}}}},
          {"name":"PartitionedCall/split_37","op":"Const","attr":{"value":{"tensor":{"dtype":"DT_FLOAT","tensorShape":{"dim":[{"size":"1"},{"size":"1"},{"size":"96"},{"size":"112"}]}}},"dtype":{"type":"DT_FLOAT"}}},
          {"name":"unknown_112","op":"Const","attr":{"dtype":{"type":"DT_FLOAT"},"value":{"tensor":{"dtype":"DT_FLOAT","tensorShape":{"dim":[{"size":"112"}]}}}}},
          {"name":"PartitionedCall/transpose_175/perm","op":"Const","attr":{"value":{"tensor":{"dtype":"DT_INT32","tensorShape":{"dim":[{"size":"4"}]}}},"dtype":{"type":"DT_INT32"}}},
          {"name":"PartitionedCall/Const_91","op":"Const","attr":{"value":{"tensor":{"dtype":"DT_INT32","tensorShape":{"dim":[{"size":"2"}]}}},"dtype":{"type":"DT_INT32"}}},
          {"name":"PartitionedCall/onnx_tf_prefix_Split_109/split_dim","op":"Const","attr":{"dtype":{"type":"DT_INT32"},"value":{"tensor":{"dtype":"DT_INT32","tensorShape":{}}}}},
          {"name":"unknown_114","op":"Const","attr":{"dtype":{"type":"DT_INT64"},"value":{"tensor":{"dtype":"DT_INT64","tensorShape":{"dim":[{"size":"3"}]}}}}},
          {"name":"PartitionedCall/Where_1","op":"Const","attr":{"dtype":{"type":"DT_INT64"},"value":{"tensor":{"dtype":"DT_INT64","tensorShape":{"dim":[{},{"size":"1"}]}}}}},
          {"name":"PartitionedCall/Cast_9","op":"Const","attr":{"dtype":{"type":"DT_INT64"},"value":{"tensor":{"dtype":"DT_INT64","tensorShape":{"dim":[{"size":"1"}]}}}}},
          {"name":"PartitionedCall/GatherV2_1","op":"Const","attr":{"dtype":{"type":"DT_INT64"},"value":{"tensor":{"dtype":"DT_INT64","tensorShape":{"dim":[{}]}}}}},
          {"name":"PartitionedCall/zeros_1","op":"Const","attr":{"value":{"tensor":{"dtype":"DT_INT64","tensorShape":{}}},"dtype":{"type":"DT_INT64"}}},
          {"name":"PartitionedCall/onnx_tf_prefix_Transpose_116/perm","op":"Const","attr":{"value":{"tensor":{"dtype":"DT_INT32","tensorShape":{"dim":[{"size":"3"}]}}},"dtype":{"type":"DT_INT32"}}},
          {"name":"input_1","op":"Placeholder","attr":{"shape":{"shape":{"dim":[{"size":"1"},{"size":"3"},{"size":"320"},{"size":"320"}]}},"dtype":{"type":"DT_FLOAT"}}},
          {"name":"PartitionedCall/SparseToDense_2","op":"SparseToDense","input":["PartitionedCall/Where_2","PartitionedCall/Cast_10","PartitionedCall/GatherV2_2","PartitionedCall/zeros_2"],"attr":{"validate_indices":{"b":true},"T":{"type":"DT_INT64"},"Tindices":{"type":"DT_INT64"}}},
          {"name":"PartitionedCall/SparseToDense_4","op":"SparseToDense","input":["PartitionedCall/Where_4","PartitionedCall/Cast_12","PartitionedCall/GatherV2_4","PartitionedCall/zeros_4"],"attr":{"Tindices":{"type":"DT_INT64"},"T":{"type":"DT_INT64"},"validate_indices":{"b":true}}},
          {"name":"PartitionedCall/SparseToDense","op":"SparseToDense","input":["PartitionedCall/Where","PartitionedCall/Cast_8","PartitionedCall/GatherV2","PartitionedCall/zeros"],"attr":{"T":{"type":"DT_INT64"},"validate_indices":{"b":true},"Tindices":{"type":"DT_INT64"}}},
          {"name":"PartitionedCall/SparseToDense_3","op":"SparseToDense","input":["PartitionedCall/Where_3","PartitionedCall/Cast_11","PartitionedCall/GatherV2_3","PartitionedCall/zeros_3"],"attr":{"Tindices":{"type":"DT_INT64"},"validate_indices":{"b":true},"T":{"type":"DT_INT64"}}},
          {"name":"PartitionedCall/SparseToDense_5","op":"SparseToDense","input":["PartitionedCall/Where_5","PartitionedCall/Cast_13","PartitionedCall/GatherV2_5","PartitionedCall/zeros_5"],"attr":{"T":{"type":"DT_INT64"},"Tindices":{"type":"DT_INT64"},"validate_indices":{"b":true}}},
          {"name":"PartitionedCall/SparseToDense_1","op":"SparseToDense","input":["PartitionedCall/Where_1","PartitionedCall/Cast_9","PartitionedCall/GatherV2_1","PartitionedCall/zeros_1"],"attr":{"T":{"type":"DT_INT64"},"validate_indices":{"b":true},"Tindices":{"type":"DT_INT64"}}},
          {"name":"PartitionedCall/Pad","op":"Pad","input":["input_1","PartitionedCall/Const"],"attr":{"Tpaddings":{"type":"DT_INT32"},"T":{"type":"DT_FLOAT"}}},
          {"name":"PartitionedCall/add_63","op":"AddV2","input":["unknown_113","PartitionedCall/SparseToDense_2"],"attr":{"T":{"type":"DT_INT64"}}},
          {"name":"PartitionedCall/add_70","op":"AddV2","input":["unknown_113","PartitionedCall/SparseToDense_4"],"attr":{"T":{"type":"DT_INT64"}}},
          {"name":"PartitionedCall/add_56","op":"AddV2","input":["unknown_113","PartitionedCall/SparseToDense"],"attr":{"T":{"type":"DT_INT64"}}},
          {"name":"PartitionedCall/add_64","op":"AddV2","input":["unknown_114","PartitionedCall/SparseToDense_3"],"attr":{"T":{"type":"DT_INT64"}}},
          {"name":"PartitionedCall/add_71","op":"AddV2","input":["unknown_114","PartitionedCall/SparseToDense_5"],"attr":{"T":{"type":"DT_INT64"}}},
          {"name":"PartitionedCall/add_57","op":"AddV2","input":["unknown_114","PartitionedCall/SparseToDense_1"],"attr":{"T":{"type":"DT_INT64"}}},
          {"name":"PartitionedCall/transpose_1","op":"Transpose","input":["PartitionedCall/Pad","PartitionedCall/transpose_1/perm"],"attr":{"T":{"type":"DT_FLOAT"},"Tperm":{"type":"DT_INT32"}}},
          {"name":"PartitionedCall/convolution","op":"Conv2D","input":["PartitionedCall/transpose_1","PartitionedCall/split"],"device":"/device:CPU:0","attr":{"dilations":{"list":{"i":["1","1","1","1"]}},"use_cudnn_on_gpu":{"b":true},"data_format":{"s":"TkhXQw=="},"T":{"type":"DT_FLOAT"},"strides":{"list":{"i":["1","2","2","1"]}},"explicit_paddings":{"list":{}},"padding":{"s":"VkFMSUQ="}}},
          {"name":"PartitionedCall/Add","op":"AddV2","input":["PartitionedCall/convolution","unknown_0"],"attr":{"T":{"type":"DT_FLOAT"}}},
          {"name":"PartitionedCall/transpose_2","op":"Transpose","input":["PartitionedCall/Add","PartitionedCall/transpose_2/perm"],"attr":{"T":{"type":"DT_FLOAT"},"Tperm":{"type":"DT_INT32"}}},
          {"name":"PartitionedCall/clip_by_value/Minimum","op":"Minimum","input":["PartitionedCall/transpose_2","PartitionedCall/clip_by_value/Minimum/y"],"attr":{"T":{"type":"DT_FLOAT"}}},
          {"name":"PartitionedCall/clip_by_value","op":"Maximum","input":["PartitionedCall/clip_by_value/Minimum","PartitionedCall/clip_by_value/y"],"attr":{"T":{"type":"DT_FLOAT"}}},
          {"name":"PartitionedCall/Pad_1","op":"Pad","input":["PartitionedCall/clip_by_value","PartitionedCall/Const_3"],"attr":{"T":{"type":"DT_FLOAT"},"Tpaddings":{"type":"DT_INT32"}}},
          {"name":"PartitionedCall/transpose_4","op":"Transpose","input":["PartitionedCall/Pad_1","PartitionedCall/transpose_4/perm"],"attr":{"Tperm":{"type":"DT_INT32"},"T":{"type":"DT_FLOAT"}}},
          {"name":"PartitionedCall/depthwise","op":"DepthwiseConv2dNative","input":["PartitionedCall/transpose_4","PartitionedCall/Reshape"],"attr":{"dilations":{"list":{"i":["1","1","1","1"]}},"data_format":{"s":"TkhXQw=="},"T":{"type":"DT_FLOAT"},"padding":{"s":"VkFMSUQ="},"strides":{"list":{"i":["1","1","1","1"]}},"explicit_paddings":{"list":{}}}},
          {"name":"PartitionedCall/Add_1","op":"AddV2","input":["PartitionedCall/depthwise","unknown_2"],"attr":{"T":{"type":"DT_FLOAT"}}},
          {"name":"PartitionedCall/transpose_5","op":"Transpose","input":["PartitionedCall/Add_1","PartitionedCall/transpose_5/perm"],"attr":{"T":{"type":"DT_FLOAT"},"Tperm":{"type":"DT_INT32"}}},
          {"name":"PartitionedCall/clip_by_value_1/Minimum","op":"Minimum","input":["PartitionedCall/transpose_5","PartitionedCall/clip_by_value_1/Minimum/y"],"attr":{"T":{"type":"DT_FLOAT"}}},
          {"name":"PartitionedCall/clip_by_value_1","op":"Maximum","input":["PartitionedCall/clip_by_value_1/Minimum","PartitionedCall/clip_by_value_1/y"],"attr":{"T":{"type":"DT_FLOAT"}}},
          {"name":"PartitionedCall/transpose_7","op":"Transpose","input":["PartitionedCall/clip_by_value_1","PartitionedCall/transpose_7/perm"],"attr":{"Tperm":{"type":"DT_INT32"},"T":{"type":"DT_FLOAT"}}},
          {"name":"PartitionedCall/convolution_1","op":"Conv2D","input":["PartitionedCall/transpose_7","PartitionedCall/split_1"],"device":"/device:CPU:0","attr":{"padding":{"s":"VkFMSUQ="},"use_cudnn_on_gpu":{"b":true},"dilations":{"list":{"i":["1","1","1","1"]}},"explicit_paddings":{"list":{}},"data_format":{"s":"TkhXQw=="},"T":{"type":"DT_FLOAT"},"strides":{"list":{"i":["1","1","1","1"]}}}},
          {"name":"PartitionedCall/Add_2","op":"AddV2","input":["PartitionedCall/convolution_1","unknown_4"],"attr":{"T":{"type":"DT_FLOAT"}}},
          {"name":"PartitionedCall/convolution_2","op":"Conv2D","input":["PartitionedCall/Add_2","PartitionedCall/split_2"],"device":"/device:CPU:0","attr":{"use_cudnn_on_gpu":{"b":true},"T":{"type":"DT_FLOAT"},"data_format":{"s":"TkhXQw=="},"explicit_paddings":{"list":{}},"strides":{"list":{"i":["1","1","1","1"]}},"dilations":{"list":{"i":["1","1","1","1"]}},"padding":{"s":"VkFMSUQ="}}},
          {"name":"PartitionedCall/Add_3","op":"AddV2","input":["PartitionedCall/convolution_2","unknown_6"],"attr":{"T":{"type":"DT_FLOAT"}}},
          {"name":"PartitionedCall/transpose_11","op":"Transpose","input":["PartitionedCall/Add_3","PartitionedCall/transpose_11/perm"],"attr":{"T":{"type":"DT_FLOAT"},"Tperm":{"type":"DT_INT32"}}},
          {"name":"PartitionedCall/clip_by_value_2/Minimum","op":"Minimum","input":["PartitionedCall/transpose_11","PartitionedCall/clip_by_value_2/Minimum/y"],"attr":{"T":{"type":"DT_FLOAT"}}},
          {"name":"PartitionedCall/clip_by_value_2","op":"Maximum","input":["PartitionedCall/clip_by_value_2/Minimum","PartitionedCall/clip_by_value_2/y"],"attr":{"T":{"type":"DT_FLOAT"}}},
          {"name":"PartitionedCall/Pad_2","op":"Pad","input":["PartitionedCall/clip_by_value_2","PartitionedCall/Const_8"],"attr":{"T":{"type":"DT_FLOAT"},"Tpaddings":{"type":"DT_INT32"}}},
          {"name":"PartitionedCall/transpose_13","op":"Transpose","input":["PartitionedCall/Pad_2","PartitionedCall/transpose_13/perm"],"attr":{"T":{"type":"DT_FLOAT"},"Tperm":{"type":"DT_INT32"}}},
          {"name":"PartitionedCall/depthwise_1","op":"DepthwiseConv2dNative","input":["PartitionedCall/transpose_13","PartitionedCall/Reshape_1"],"attr":{"explicit_paddings":{"list":{}},"T":{"type":"DT_FLOAT"},"strides":{"list":{"i":["1","2","2","1"]}},"dilations":{"list":{"i":["1","1","1","1"]}},"padding":{"s":"VkFMSUQ="},"data_format":{"s":"TkhXQw=="}}},
          {"name":"PartitionedCall/Add_4","op":"AddV2","input":["PartitionedCall/depthwise_1","unknown_8"],"attr":{"T":{"type":"DT_FLOAT"}}},
          {"name":"PartitionedCall/transpose_14","op":"Transpose","input":["PartitionedCall/Add_4","PartitionedCall/transpose_14/perm"],"attr":{"T":{"type":"DT_FLOAT"},"Tperm":{"type":"DT_INT32"}}},
          {"name":"PartitionedCall/clip_by_value_3/Minimum","op":"Minimum","input":["PartitionedCall/transpose_14","PartitionedCall/clip_by_value_3/Minimum/y"],"attr":{"T":{"type":"DT_FLOAT"}}},
          {"name":"PartitionedCall/clip_by_value_3","op":"Maximum","input":["PartitionedCall/clip_by_value_3/Minimum","PartitionedCall/clip_by_value_3/y"],"attr":{"T":{"type":"DT_FLOAT"}}},
          {"name":"PartitionedCall/transpose_16","op":"Transpose","input":["PartitionedCall/clip_by_value_3","PartitionedCall/transpose_16/perm"],"attr":{"T":{"type":"DT_FLOAT"},"Tperm":{"type":"DT_INT32"}}},
          {"name":"PartitionedCall/convolution_3","op":"Conv2D","input":["PartitionedCall/transpose_16","PartitionedCall/split_3"],"device":"/device:CPU:0","attr":{"explicit_paddings":{"list":{}},"strides":{"list":{"i":["1","1","1","1"]}},"data_format":{"s":"TkhXQw=="},"padding":{"s":"VkFMSUQ="},"use_cudnn_on_gpu":{"b":true},"T":{"type":"DT_FLOAT"},"dilations":{"list":{"i":["1","1","1","1"]}}}},
          {"name":"PartitionedCall/Add_5","op":"AddV2","input":["PartitionedCall/convolution_3","unknown_10"],"attr":{"T":{"type":"DT_FLOAT"}}},
          {"name":"PartitionedCall/convolution_4","op":"Conv2D","input":["PartitionedCall/Add_5","PartitionedCall/split_4"],"device":"/device:CPU:0","attr":{"explicit_paddings":{"list":{}},"padding":{"s":"VkFMSUQ="},"strides":{"list":{"i":["1","1","1","1"]}},"data_format":{"s":"TkhXQw=="},"dilations":{"list":{"i":["1","1","1","1"]}},"T":{"type":"DT_FLOAT"},"use_cudnn_on_gpu":{"b":true}}},
          {"name":"PartitionedCall/transpose_17","op":"Transpose","input":["PartitionedCall/Add_5","PartitionedCall/transpose_17/perm"],"attr":{"T":{"type":"DT_FLOAT"},"Tperm":{"type":"DT_INT32"}}},
          {"name":"PartitionedCall/Add_6","op":"AddV2","input":["PartitionedCall/convolution_4","unknown_12"],"attr":{"T":{"type":"DT_FLOAT"}}},
          {"name":"PartitionedCall/transpose_20","op":"Transpose","input":["PartitionedCall/Add_6","PartitionedCall/transpose_20/perm"],"attr":{"T":{"type":"DT_FLOAT"},"Tperm":{"type":"DT_INT32"}}},
          {"name":"PartitionedCall/clip_by_value_4/Minimum","op":"Minimum","input":["PartitionedCall/transpose_20","PartitionedCall/clip_by_value_4/Minimum/y"],"attr":{"T":{"type":"DT_FLOAT"}}},
          {"name":"PartitionedCall/clip_by_value_4","op":"Maximum","input":["PartitionedCall/clip_by_value_4/Minimum","PartitionedCall/clip_by_value_4/y"],"attr":{"T":{"type":"DT_FLOAT"}}},
          {"name":"PartitionedCall/Pad_3","op":"Pad","input":["PartitionedCall/clip_by_value_4","PartitionedCall/Const_13"],"attr":{"Tpaddings":{"type":"DT_INT32"},"T":{"type":"DT_FLOAT"}}},
          {"name":"PartitionedCall/transpose_22","op":"Transpose","input":["PartitionedCall/Pad_3","PartitionedCall/transpose_22/perm"],"attr":{"T":{"type":"DT_FLOAT"},"Tperm":{"type":"DT_INT32"}}},
          {"name":"PartitionedCall/depthwise_2","op":"DepthwiseConv2dNative","input":["PartitionedCall/transpose_22","PartitionedCall/Reshape_2"],"attr":{"dilations":{"list":{"i":["1","1","1","1"]}},"T":{"type":"DT_FLOAT"},"strides":{"list":{"i":["1","1","1","1"]}},"explicit_paddings":{"list":{}},"padding":{"s":"VkFMSUQ="},"data_format":{"s":"TkhXQw=="}}},
          {"name":"PartitionedCall/Add_7","op":"AddV2","input":["PartitionedCall/depthwise_2","unknown_14"],"attr":{"T":{"type":"DT_FLOAT"}}},
          {"name":"PartitionedCall/transpose_23","op":"Transpose","input":["PartitionedCall/Add_7","PartitionedCall/transpose_23/perm"],"attr":{"Tperm":{"type":"DT_INT32"},"T":{"type":"DT_FLOAT"}}},
          {"name":"PartitionedCall/clip_by_value_5/Minimum","op":"Minimum","input":["PartitionedCall/transpose_23","PartitionedCall/clip_by_value_5/Minimum/y"],"attr":{"T":{"type":"DT_FLOAT"}}},
          {"name":"PartitionedCall/clip_by_value_5","op":"Maximum","input":["PartitionedCall/clip_by_value_5/Minimum","PartitionedCall/clip_by_value_5/y"],"attr":{"T":{"type":"DT_FLOAT"}}},
          {"name":"PartitionedCall/transpose_25","op":"Transpose","input":["PartitionedCall/clip_by_value_5","PartitionedCall/transpose_25/perm"],"attr":{"T":{"type":"DT_FLOAT"},"Tperm":{"type":"DT_INT32"}}},
          {"name":"PartitionedCall/convolution_5","op":"Conv2D","input":["PartitionedCall/transpose_25","PartitionedCall/split_5"],"device":"/device:CPU:0","attr":{"use_cudnn_on_gpu":{"b":true},"strides":{"list":{"i":["1","1","1","1"]}},"T":{"type":"DT_FLOAT"},"dilations":{"list":{"i":["1","1","1","1"]}},"padding":{"s":"VkFMSUQ="},"explicit_paddings":{"list":{}},"data_format":{"s":"TkhXQw=="}}},
          {"name":"PartitionedCall/Add_8","op":"AddV2","input":["PartitionedCall/convolution_5","unknown_16"],"attr":{"T":{"type":"DT_FLOAT"}}},
          {"name":"PartitionedCall/transpose_26","op":"Transpose","input":["PartitionedCall/Add_8","PartitionedCall/transpose_26/perm"],"attr":{"Tperm":{"type":"DT_INT32"},"T":{"type":"DT_FLOAT"}}},
          {"name":"PartitionedCall/onnx_tf_prefix_Add_15","op":"AddV2","input":["PartitionedCall/transpose_26","PartitionedCall/transpose_17"],"attr":{"T":{"type":"DT_FLOAT"}}},
          {"name":"PartitionedCall/transpose_28","op":"Transpose","input":["PartitionedCall/onnx_tf_prefix_Add_15","PartitionedCall/transpose_28/perm"],"attr":{"T":{"type":"DT_FLOAT"},"Tperm":{"type":"DT_INT32"}}},
          {"name":"PartitionedCall/convolution_6","op":"Conv2D","input":["PartitionedCall/transpose_28","PartitionedCall/split_6"],"device":"/device:CPU:0","attr":{"explicit_paddings":{"list":{}},"T":{"type":"DT_FLOAT"},"strides":{"list":{"i":["1","1","1","1"]}},"dilations":{"list":{"i":["1","1","1","1"]}},"data_format":{"s":"TkhXQw=="},"use_cudnn_on_gpu":{"b":true},"padding":{"s":"VkFMSUQ="}}},
          {"name":"PartitionedCall/Add_9","op":"AddV2","input":["PartitionedCall/convolution_6","unknown_18"],"attr":{"T":{"type":"DT_FLOAT"}}},
          {"name":"PartitionedCall/transpose_29","op":"Transpose","input":["PartitionedCall/Add_9","PartitionedCall/transpose_29/perm"],"attr":{"T":{"type":"DT_FLOAT"},"Tperm":{"type":"DT_INT32"}}},
          {"name":"PartitionedCall/clip_by_value_6/Minimum","op":"Minimum","input":["PartitionedCall/transpose_29","PartitionedCall/clip_by_value_6/Minimum/y"],"attr":{"T":{"type":"DT_FLOAT"}}},
          {"name":"PartitionedCall/clip_by_value_6","op":"Maximum","input":["PartitionedCall/clip_by_value_6/Minimum","PartitionedCall/clip_by_value_6/y"],"attr":{"T":{"type":"DT_FLOAT"}}},
          {"name":"PartitionedCall/Pad_4","op":"Pad","input":["PartitionedCall/clip_by_value_6","PartitionedCall/Const_18"],"attr":{"T":{"type":"DT_FLOAT"},"Tpaddings":{"type":"DT_INT32"}}},
          {"name":"PartitionedCall/transpose_31","op":"Transpose","input":["PartitionedCall/Pad_4","PartitionedCall/transpose_31/perm"],"attr":{"Tperm":{"type":"DT_INT32"},"T":{"type":"DT_FLOAT"}}},
          {"name":"PartitionedCall/depthwise_3","op":"DepthwiseConv2dNative","input":["PartitionedCall/transpose_31","PartitionedCall/Reshape_3"],"attr":{"dilations":{"list":{"i":["1","1","1","1"]}},"T":{"type":"DT_FLOAT"},"explicit_paddings":{"list":{}},"data_format":{"s":"TkhXQw=="},"padding":{"s":"VkFMSUQ="},"strides":{"list":{"i":["1","2","2","1"]}}}},
          {"name":"PartitionedCall/Add_10","op":"AddV2","input":["PartitionedCall/depthwise_3","unknown_20"],"attr":{"T":{"type":"DT_FLOAT"}}},
          {"name":"PartitionedCall/transpose_32","op":"Transpose","input":["PartitionedCall/Add_10","PartitionedCall/transpose_32/perm"],"attr":{"Tperm":{"type":"DT_INT32"},"T":{"type":"DT_FLOAT"}}},
          {"name":"PartitionedCall/clip_by_value_7/Minimum","op":"Minimum","input":["PartitionedCall/transpose_32","PartitionedCall/clip_by_value_7/Minimum/y"],"attr":{"T":{"type":"DT_FLOAT"}}},
          {"name":"PartitionedCall/clip_by_value_7","op":"Maximum","input":["PartitionedCall/clip_by_value_7/Minimum","PartitionedCall/clip_by_value_7/y"],"attr":{"T":{"type":"DT_FLOAT"}}},
          {"name":"PartitionedCall/transpose_34","op":"Transpose","input":["PartitionedCall/clip_by_value_7","PartitionedCall/transpose_34/perm"],"attr":{"Tperm":{"type":"DT_INT32"},"T":{"type":"DT_FLOAT"}}},
          {"name":"PartitionedCall/convolution_7","op":"Conv2D","input":["PartitionedCall/transpose_34","PartitionedCall/split_7"],"device":"/device:CPU:0","attr":{"use_cudnn_on_gpu":{"b":true},"T":{"type":"DT_FLOAT"},"data_format":{"s":"TkhXQw=="},"padding":{"s":"VkFMSUQ="},"strides":{"list":{"i":["1","1","1","1"]}},"dilations":{"list":{"i":["1","1","1","1"]}},"explicit_paddings":{"list":{}}}},
          {"name":"PartitionedCall/Add_11","op":"AddV2","input":["PartitionedCall/convolution_7","unknown_22"],"attr":{"T":{"type":"DT_FLOAT"}}},
          {"name":"PartitionedCall/convolution_8","op":"Conv2D","input":["PartitionedCall/Add_11","PartitionedCall/split_8"],"device":"/device:CPU:0","attr":{"dilations":{"list":{"i":["1","1","1","1"]}},"strides":{"list":{"i":["1","1","1","1"]}},"explicit_paddings":{"list":{}},"data_format":{"s":"TkhXQw=="},"padding":{"s":"VkFMSUQ="},"T":{"type":"DT_FLOAT"},"use_cudnn_on_gpu":{"b":true}}},
          {"name":"PartitionedCall/transpose_35","op":"Transpose","input":["PartitionedCall/Add_11","PartitionedCall/transpose_35/perm"],"attr":{"Tperm":{"type":"DT_INT32"},"T":{"type":"DT_FLOAT"}}},
          {"name":"PartitionedCall/Add_12","op":"AddV2","input":["PartitionedCall/convolution_8","unknown_24"],"attr":{"T":{"type":"DT_FLOAT"}}},
          {"name":"PartitionedCall/transpose_38","op":"Transpose","input":["PartitionedCall/Add_12","PartitionedCall/transpose_38/perm"],"attr":{"T":{"type":"DT_FLOAT"},"Tperm":{"type":"DT_INT32"}}},
          {"name":"PartitionedCall/clip_by_value_8/Minimum","op":"Minimum","input":["PartitionedCall/transpose_38","PartitionedCall/clip_by_value_8/Minimum/y"],"attr":{"T":{"type":"DT_FLOAT"}}},
          {"name":"PartitionedCall/clip_by_value_8","op":"Maximum","input":["PartitionedCall/clip_by_value_8/Minimum","PartitionedCall/clip_by_value_8/y"],"attr":{"T":{"type":"DT_FLOAT"}}},
          {"name":"PartitionedCall/Pad_5","op":"Pad","input":["PartitionedCall/clip_by_value_8","PartitionedCall/Const_23"],"attr":{"T":{"type":"DT_FLOAT"},"Tpaddings":{"type":"DT_INT32"}}},
          {"name":"PartitionedCall/transpose_40","op":"Transpose","input":["PartitionedCall/Pad_5","PartitionedCall/transpose_40/perm"],"attr":{"Tperm":{"type":"DT_INT32"},"T":{"type":"DT_FLOAT"}}},
          {"name":"PartitionedCall/depthwise_4","op":"DepthwiseConv2dNative","input":["PartitionedCall/transpose_40","PartitionedCall/Reshape_4"],"attr":{"padding":{"s":"VkFMSUQ="},"dilations":{"list":{"i":["1","1","1","1"]}},"T":{"type":"DT_FLOAT"},"data_format":{"s":"TkhXQw=="},"strides":{"list":{"i":["1","1","1","1"]}},"explicit_paddings":{"list":{}}}},
          {"name":"PartitionedCall/Add_13","op":"AddV2","input":["PartitionedCall/depthwise_4","unknown_26"],"attr":{"T":{"type":"DT_FLOAT"}}},
          {"name":"PartitionedCall/transpose_41","op":"Transpose","input":["PartitionedCall/Add_13","PartitionedCall/transpose_41/perm"],"attr":{"Tperm":{"type":"DT_INT32"},"T":{"type":"DT_FLOAT"}}},
          {"name":"PartitionedCall/clip_by_value_9/Minimum","op":"Minimum","input":["PartitionedCall/transpose_41","PartitionedCall/clip_by_value_9/Minimum/y"],"attr":{"T":{"type":"DT_FLOAT"}}},
          {"name":"PartitionedCall/clip_by_value_9","op":"Maximum","input":["PartitionedCall/clip_by_value_9/Minimum","PartitionedCall/clip_by_value_9/y"],"attr":{"T":{"type":"DT_FLOAT"}}},
          {"name":"PartitionedCall/transpose_43","op":"Transpose","input":["PartitionedCall/clip_by_value_9","PartitionedCall/transpose_43/perm"],"attr":{"T":{"type":"DT_FLOAT"},"Tperm":{"type":"DT_INT32"}}},
          {"name":"PartitionedCall/convolution_9","op":"Conv2D","input":["PartitionedCall/transpose_43","PartitionedCall/split_9"],"device":"/device:CPU:0","attr":{"data_format":{"s":"TkhXQw=="},"explicit_paddings":{"list":{}},"use_cudnn_on_gpu":{"b":true},"strides":{"list":{"i":["1","1","1","1"]}},"padding":{"s":"VkFMSUQ="},"T":{"type":"DT_FLOAT"},"dilations":{"list":{"i":["1","1","1","1"]}}}},
          {"name":"PartitionedCall/Add_14","op":"AddV2","input":["PartitionedCall/convolution_9","unknown_28"],"attr":{"T":{"type":"DT_FLOAT"}}},
          {"name":"PartitionedCall/transpose_44","op":"Transpose","input":["PartitionedCall/Add_14","PartitionedCall/transpose_44/perm"],"attr":{"T":{"type":"DT_FLOAT"},"Tperm":{"type":"DT_INT32"}}},
          {"name":"PartitionedCall/onnx_tf_prefix_Add_26","op":"AddV2","input":["PartitionedCall/transpose_44","PartitionedCall/transpose_35"],"attr":{"T":{"type":"DT_FLOAT"}}},
          {"name":"PartitionedCall/transpose_145","op":"Transpose","input":["PartitionedCall/onnx_tf_prefix_Add_26","PartitionedCall/transpose_145/perm"],"attr":{"T":{"type":"DT_FLOAT"},"Tperm":{"type":"DT_INT32"}}},
          {"name":"PartitionedCall/transpose_46","op":"Transpose","input":["PartitionedCall/onnx_tf_prefix_Add_26","PartitionedCall/transpose_46/perm"],"attr":{"Tperm":{"type":"DT_INT32"},"T":{"type":"DT_FLOAT"}}},
          {"name":"PartitionedCall/convolution_32","op":"Conv2D","input":["PartitionedCall/transpose_145","PartitionedCall/split_32"],"device":"/device:CPU:0","attr":{"strides":{"list":{"i":["1","1","1","1"]}},"data_format":{"s":"TkhXQw=="},"dilations":{"list":{"i":["1","1","1","1"]}},"padding":{"s":"VkFMSUQ="},"use_cudnn_on_gpu":{"b":true},"T":{"type":"DT_FLOAT"},"explicit_paddings":{"list":{}}}},
          {"name":"PartitionedCall/convolution_10","op":"Conv2D","input":["PartitionedCall/transpose_46","PartitionedCall/split_10"],"device":"/device:CPU:0","attr":{"dilations":{"list":{"i":["1","1","1","1"]}},"padding":{"s":"VkFMSUQ="},"use_cudnn_on_gpu":{"b":true},"explicit_paddings":{"list":{}},"T":{"type":"DT_FLOAT"},"strides":{"list":{"i":["1","1","1","1"]}},"data_format":{"s":"TkhXQw=="}}},
          {"name":"PartitionedCall/Add_48","op":"AddV2","input":["PartitionedCall/convolution_32","unknown_96"],"attr":{"T":{"type":"DT_FLOAT"}}},
          {"name":"PartitionedCall/Add_15","op":"AddV2","input":["PartitionedCall/convolution_10","unknown_30"],"attr":{"T":{"type":"DT_FLOAT"}}},
          {"name":"PartitionedCall/transpose_146","op":"Transpose","input":["PartitionedCall/Add_48","PartitionedCall/transpose_146/perm"],"attr":{"Tperm":{"type":"DT_INT32"},"T":{"type":"DT_FLOAT"}}},
          {"name":"PartitionedCall/transpose_47","op":"Transpose","input":["PartitionedCall/Add_15","PartitionedCall/transpose_47/perm"],"attr":{"T":{"type":"DT_FLOAT"},"Tperm":{"type":"DT_INT32"}}},
          {"name":"PartitionedCall/clip_by_value_10/Minimum","op":"Minimum","input":["PartitionedCall/transpose_47","PartitionedCall/clip_by_value_10/Minimum/y"],"attr":{"T":{"type":"DT_FLOAT"}}},
          {"name":"PartitionedCall/clip_by_value_10","op":"Maximum","input":["PartitionedCall/clip_by_value_10/Minimum","PartitionedCall/clip_by_value_10/y"],"attr":{"T":{"type":"DT_FLOAT"}}},
          {"name":"PartitionedCall/Pad_6","op":"Pad","input":["PartitionedCall/clip_by_value_10","PartitionedCall/Const_28"],"attr":{"Tpaddings":{"type":"DT_INT32"},"T":{"type":"DT_FLOAT"}}},
          {"name":"PartitionedCall/transpose_49","op":"Transpose","input":["PartitionedCall/Pad_6","PartitionedCall/transpose_49/perm"],"attr":{"Tperm":{"type":"DT_INT32"},"T":{"type":"DT_FLOAT"}}},
          {"name":"PartitionedCall/depthwise_5","op":"DepthwiseConv2dNative","input":["PartitionedCall/transpose_49","PartitionedCall/Reshape_5"],"attr":{"explicit_paddings":{"list":{}},"strides":{"list":{"i":["1","2","2","1"]}},"dilations":{"list":{"i":["1","1","1","1"]}},"padding":{"s":"VkFMSUQ="},"data_format":{"s":"TkhXQw=="},"T":{"type":"DT_FLOAT"}}},
          {"name":"PartitionedCall/Add_16","op":"AddV2","input":["PartitionedCall/depthwise_5","unknown_32"],"attr":{"T":{"type":"DT_FLOAT"}}},
          {"name":"PartitionedCall/transpose_50","op":"Transpose","input":["PartitionedCall/Add_16","PartitionedCall/transpose_50/perm"],"attr":{"Tperm":{"type":"DT_INT32"},"T":{"type":"DT_FLOAT"}}},
          {"name":"PartitionedCall/clip_by_value_11/Minimum","op":"Minimum","input":["PartitionedCall/transpose_50","PartitionedCall/clip_by_value_11/Minimum/y"],"attr":{"T":{"type":"DT_FLOAT"}}},
          {"name":"PartitionedCall/clip_by_value_11","op":"Maximum","input":["PartitionedCall/clip_by_value_11/Minimum","PartitionedCall/clip_by_value_11/y"],"attr":{"T":{"type":"DT_FLOAT"}}},
          {"name":"PartitionedCall/transpose_52","op":"Transpose","input":["PartitionedCall/clip_by_value_11","PartitionedCall/transpose_52/perm"],"attr":{"T":{"type":"DT_FLOAT"},"Tperm":{"type":"DT_INT32"}}},
          {"name":"PartitionedCall/convolution_11","op":"Conv2D","input":["PartitionedCall/transpose_52","PartitionedCall/split_11"],"device":"/device:CPU:0","attr":{"padding":{"s":"VkFMSUQ="},"T":{"type":"DT_FLOAT"},"strides":{"list":{"i":["1","1","1","1"]}},"explicit_paddings":{"list":{}},"dilations":{"list":{"i":["1","1","1","1"]}},"data_format":{"s":"TkhXQw=="},"use_cudnn_on_gpu":{"b":true}}},
          {"name":"PartitionedCall/Add_17","op":"AddV2","input":["PartitionedCall/convolution_11","unknown_34"],"attr":{"T":{"type":"DT_FLOAT"}}},
          {"name":"PartitionedCall/convolution_12","op":"Conv2D","input":["PartitionedCall/Add_17","PartitionedCall/split_12"],"device":"/device:CPU:0","attr":{"padding":{"s":"VkFMSUQ="},"strides":{"list":{"i":["1","1","1","1"]}},"use_cudnn_on_gpu":{"b":true},"T":{"type":"DT_FLOAT"},"data_format":{"s":"TkhXQw=="},"explicit_paddings":{"list":{}},"dilations":{"list":{"i":["1","1","1","1"]}}}},
          {"name":"PartitionedCall/transpose_53","op":"Transpose","input":["PartitionedCall/Add_17","PartitionedCall/transpose_53/perm"],"attr":{"Tperm":{"type":"DT_INT32"},"T":{"type":"DT_FLOAT"}}},
          {"name":"PartitionedCall/Add_18","op":"AddV2","input":["PartitionedCall/convolution_12","unknown_36"],"attr":{"T":{"type":"DT_FLOAT"}}},
          {"name":"PartitionedCall/transpose_56","op":"Transpose","input":["PartitionedCall/Add_18","PartitionedCall/transpose_56/perm"],"attr":{"Tperm":{"type":"DT_INT32"},"T":{"type":"DT_FLOAT"}}},
          {"name":"PartitionedCall/clip_by_value_12/Minimum","op":"Minimum","input":["PartitionedCall/transpose_56","PartitionedCall/clip_by_value_12/Minimum/y"],"attr":{"T":{"type":"DT_FLOAT"}}},
          {"name":"PartitionedCall/clip_by_value_12","op":"Maximum","input":["PartitionedCall/clip_by_value_12/Minimum","PartitionedCall/clip_by_value_12/y"],"attr":{"T":{"type":"DT_FLOAT"}}},
          {"name":"PartitionedCall/Pad_7","op":"Pad","input":["PartitionedCall/clip_by_value_12","PartitionedCall/Const_33"],"attr":{"T":{"type":"DT_FLOAT"},"Tpaddings":{"type":"DT_INT32"}}},
          {"name":"PartitionedCall/transpose_58","op":"Transpose","input":["PartitionedCall/Pad_7","PartitionedCall/transpose_58/perm"],"attr":{"T":{"type":"DT_FLOAT"},"Tperm":{"type":"DT_INT32"}}},
          {"name":"PartitionedCall/depthwise_6","op":"DepthwiseConv2dNative","input":["PartitionedCall/transpose_58","PartitionedCall/Reshape_6"],"attr":{"dilations":{"list":{"i":["1","1","1","1"]}},"strides":{"list":{"i":["1","1","1","1"]}},"padding":{"s":"VkFMSUQ="},"data_format":{"s":"TkhXQw=="},"T":{"type":"DT_FLOAT"},"explicit_paddings":{"list":{}}}},
          {"name":"PartitionedCall/Add_19","op":"AddV2","input":["PartitionedCall/depthwise_6","unknown_38"],"attr":{"T":{"type":"DT_FLOAT"}}},
          {"name":"PartitionedCall/transpose_59","op":"Transpose","input":["PartitionedCall/Add_19","PartitionedCall/transpose_59/perm"],"attr":{"T":{"type":"DT_FLOAT"},"Tperm":{"type":"DT_INT32"}}},
          {"name":"PartitionedCall/clip_by_value_13/Minimum","op":"Minimum","input":["PartitionedCall/transpose_59","PartitionedCall/clip_by_value_13/Minimum/y"],"attr":{"T":{"type":"DT_FLOAT"}}},
          {"name":"PartitionedCall/clip_by_value_13","op":"Maximum","input":["PartitionedCall/clip_by_value_13/Minimum","PartitionedCall/clip_by_value_13/y"],"attr":{"T":{"type":"DT_FLOAT"}}},
          {"name":"PartitionedCall/transpose_61","op":"Transpose","input":["PartitionedCall/clip_by_value_13","PartitionedCall/transpose_61/perm"],"attr":{"T":{"type":"DT_FLOAT"},"Tperm":{"type":"DT_INT32"}}},
          {"name":"PartitionedCall/convolution_13","op":"Conv2D","input":["PartitionedCall/transpose_61","PartitionedCall/split_13"],"device":"/device:CPU:0","attr":{"dilations":{"list":{"i":["1","1","1","1"]}},"data_format":{"s":"TkhXQw=="},"T":{"type":"DT_FLOAT"},"use_cudnn_on_gpu":{"b":true},"explicit_paddings":{"list":{}},"padding":{"s":"VkFMSUQ="},"strides":{"list":{"i":["1","1","1","1"]}}}},
          {"name":"PartitionedCall/Add_20","op":"AddV2","input":["PartitionedCall/convolution_13","unknown_40"],"attr":{"T":{"type":"DT_FLOAT"}}},
          {"name":"PartitionedCall/transpose_62","op":"Transpose","input":["PartitionedCall/Add_20","PartitionedCall/transpose_62/perm"],"attr":{"Tperm":{"type":"DT_INT32"},"T":{"type":"DT_FLOAT"}}},
          {"name":"PartitionedCall/onnx_tf_prefix_Add_37","op":"AddV2","input":["PartitionedCall/transpose_62","PartitionedCall/transpose_53"],"attr":{"T":{"type":"DT_FLOAT"}}},
          {"name":"PartitionedCall/transpose_64","op":"Transpose","input":["PartitionedCall/onnx_tf_prefix_Add_37","PartitionedCall/transpose_64/perm"],"attr":{"T":{"type":"DT_FLOAT"},"Tperm":{"type":"DT_INT32"}}},
          {"name":"PartitionedCall/convolution_14","op":"Conv2D","input":["PartitionedCall/transpose_64","PartitionedCall/split_14"],"device":"/device:CPU:0","attr":{"T":{"type":"DT_FLOAT"},"strides":{"list":{"i":["1","1","1","1"]}},"dilations":{"list":{"i":["1","1","1","1"]}},"padding":{"s":"VkFMSUQ="},"data_format":{"s":"TkhXQw=="},"use_cudnn_on_gpu":{"b":true},"explicit_paddings":{"list":{}}}},
          {"name":"PartitionedCall/Add_21","op":"AddV2","input":["PartitionedCall/convolution_14","unknown_42"],"attr":{"T":{"type":"DT_FLOAT"}}},
          {"name":"PartitionedCall/transpose_65","op":"Transpose","input":["PartitionedCall/Add_21","PartitionedCall/transpose_65/perm"],"attr":{"Tperm":{"type":"DT_INT32"},"T":{"type":"DT_FLOAT"}}},
          {"name":"PartitionedCall/clip_by_value_14/Minimum","op":"Minimum","input":["PartitionedCall/transpose_65","PartitionedCall/clip_by_value_14/Minimum/y"],"attr":{"T":{"type":"DT_FLOAT"}}},
          {"name":"PartitionedCall/clip_by_value_14","op":"Maximum","input":["PartitionedCall/clip_by_value_14/Minimum","PartitionedCall/clip_by_value_14/y"],"attr":{"T":{"type":"DT_FLOAT"}}},
          {"name":"PartitionedCall/Pad_8","op":"Pad","input":["PartitionedCall/clip_by_value_14","PartitionedCall/Const_38"],"attr":{"T":{"type":"DT_FLOAT"},"Tpaddings":{"type":"DT_INT32"}}},
          {"name":"PartitionedCall/transpose_67","op":"Transpose","input":["PartitionedCall/Pad_8","PartitionedCall/transpose_67/perm"],"attr":{"T":{"type":"DT_FLOAT"},"Tperm":{"type":"DT_INT32"}}},
          {"name":"PartitionedCall/depthwise_7","op":"DepthwiseConv2dNative","input":["PartitionedCall/transpose_67","PartitionedCall/Reshape_7"],"attr":{"padding":{"s":"VkFMSUQ="},"data_format":{"s":"TkhXQw=="},"strides":{"list":{"i":["1","1","1","1"]}},"T":{"type":"DT_FLOAT"},"dilations":{"list":{"i":["1","1","1","1"]}},"explicit_paddings":{"list":{}}}},
          {"name":"PartitionedCall/Add_22","op":"AddV2","input":["PartitionedCall/depthwise_7","unknown_44"],"attr":{"T":{"type":"DT_FLOAT"}}},
          {"name":"PartitionedCall/transpose_68","op":"Transpose","input":["PartitionedCall/Add_22","PartitionedCall/transpose_68/perm"],"attr":{"Tperm":{"type":"DT_INT32"},"T":{"type":"DT_FLOAT"}}},
          {"name":"PartitionedCall/clip_by_value_15/Minimum","op":"Minimum","input":["PartitionedCall/transpose_68","PartitionedCall/clip_by_value_15/Minimum/y"],"attr":{"T":{"type":"DT_FLOAT"}}},
          {"name":"PartitionedCall/clip_by_value_15","op":"Maximum","input":["PartitionedCall/clip_by_value_15/Minimum","PartitionedCall/clip_by_value_15/y"],"attr":{"T":{"type":"DT_FLOAT"}}},
          {"name":"PartitionedCall/transpose_70","op":"Transpose","input":["PartitionedCall/clip_by_value_15","PartitionedCall/transpose_70/perm"],"attr":{"T":{"type":"DT_FLOAT"},"Tperm":{"type":"DT_INT32"}}},
          {"name":"PartitionedCall/convolution_15","op":"Conv2D","input":["PartitionedCall/transpose_70","PartitionedCall/split_15"],"device":"/device:CPU:0","attr":{"padding":{"s":"VkFMSUQ="},"explicit_paddings":{"list":{}},"dilations":{"list":{"i":["1","1","1","1"]}},"T":{"type":"DT_FLOAT"},"strides":{"list":{"i":["1","1","1","1"]}},"use_cudnn_on_gpu":{"b":true},"data_format":{"s":"TkhXQw=="}}},
          {"name":"PartitionedCall/Add_23","op":"AddV2","input":["PartitionedCall/convolution_15","unknown_46"],"attr":{"T":{"type":"DT_FLOAT"}}},
          {"name":"PartitionedCall/transpose_71","op":"Transpose","input":["PartitionedCall/Add_23","PartitionedCall/transpose_71/perm"],"attr":{"Tperm":{"type":"DT_INT32"},"T":{"type":"DT_FLOAT"}}},
          {"name":"PartitionedCall/onnx_tf_prefix_Add_43","op":"AddV2","input":["PartitionedCall/transpose_71","PartitionedCall/onnx_tf_prefix_Add_37"],"attr":{"T":{"type":"DT_FLOAT"}}},
          {"name":"PartitionedCall/transpose_73","op":"Transpose","input":["PartitionedCall/onnx_tf_prefix_Add_43","PartitionedCall/transpose_73/perm"],"attr":{"Tperm":{"type":"DT_INT32"},"T":{"type":"DT_FLOAT"}}},
          {"name":"PartitionedCall/convolution_16","op":"Conv2D","input":["PartitionedCall/transpose_73","PartitionedCall/split_16"],"device":"/device:CPU:0","attr":{"data_format":{"s":"TkhXQw=="},"padding":{"s":"VkFMSUQ="},"use_cudnn_on_gpu":{"b":true},"strides":{"list":{"i":["1","1","1","1"]}},"dilations":{"list":{"i":["1","1","1","1"]}},"T":{"type":"DT_FLOAT"},"explicit_paddings":{"list":{}}}},
          {"name":"PartitionedCall/Add_24","op":"AddV2","input":["PartitionedCall/convolution_16","unknown_48"],"attr":{"T":{"type":"DT_FLOAT"}}},
          {"name":"PartitionedCall/transpose_74","op":"Transpose","input":["PartitionedCall/Add_24","PartitionedCall/transpose_74/perm"],"attr":{"T":{"type":"DT_FLOAT"},"Tperm":{"type":"DT_INT32"}}},
          {"name":"PartitionedCall/clip_by_value_16/Minimum","op":"Minimum","input":["PartitionedCall/transpose_74","PartitionedCall/clip_by_value_16/Minimum/y"],"attr":{"T":{"type":"DT_FLOAT"}}},
          {"name":"PartitionedCall/clip_by_value_16","op":"Maximum","input":["PartitionedCall/clip_by_value_16/Minimum","PartitionedCall/clip_by_value_16/y"],"attr":{"T":{"type":"DT_FLOAT"}}},
          {"name":"PartitionedCall/Pad_9","op":"Pad","input":["PartitionedCall/clip_by_value_16","PartitionedCall/Const_43"],"attr":{"T":{"type":"DT_FLOAT"},"Tpaddings":{"type":"DT_INT32"}}},
          {"name":"PartitionedCall/transpose_76","op":"Transpose","input":["PartitionedCall/Pad_9","PartitionedCall/transpose_76/perm"],"attr":{"T":{"type":"DT_FLOAT"},"Tperm":{"type":"DT_INT32"}}},
          {"name":"PartitionedCall/depthwise_8","op":"DepthwiseConv2dNative","input":["PartitionedCall/transpose_76","PartitionedCall/Reshape_8"],"attr":{"dilations":{"list":{"i":["1","1","1","1"]}},"strides":{"list":{"i":["1","1","1","1"]}},"data_format":{"s":"TkhXQw=="},"padding":{"s":"VkFMSUQ="},"explicit_paddings":{"list":{}},"T":{"type":"DT_FLOAT"}}},
          {"name":"PartitionedCall/Add_25","op":"AddV2","input":["PartitionedCall/depthwise_8","unknown_50"],"attr":{"T":{"type":"DT_FLOAT"}}},
          {"name":"PartitionedCall/transpose_77","op":"Transpose","input":["PartitionedCall/Add_25","PartitionedCall/transpose_77/perm"],"attr":{"Tperm":{"type":"DT_INT32"},"T":{"type":"DT_FLOAT"}}},
          {"name":"PartitionedCall/clip_by_value_17/Minimum","op":"Minimum","input":["PartitionedCall/transpose_77","PartitionedCall/clip_by_value_17/Minimum/y"],"attr":{"T":{"type":"DT_FLOAT"}}},
          {"name":"PartitionedCall/clip_by_value_17","op":"Maximum","input":["PartitionedCall/clip_by_value_17/Minimum","PartitionedCall/clip_by_value_17/y"],"attr":{"T":{"type":"DT_FLOAT"}}},
          {"name":"PartitionedCall/transpose_79","op":"Transpose","input":["PartitionedCall/clip_by_value_17","PartitionedCall/transpose_79/perm"],"attr":{"Tperm":{"type":"DT_INT32"},"T":{"type":"DT_FLOAT"}}},
          {"name":"PartitionedCall/convolution_17","op":"Conv2D","input":["PartitionedCall/transpose_79","PartitionedCall/split_17"],"device":"/device:CPU:0","attr":{"use_cudnn_on_gpu":{"b":true},"dilations":{"list":{"i":["1","1","1","1"]}},"data_format":{"s":"TkhXQw=="},"explicit_paddings":{"list":{}},"padding":{"s":"VkFMSUQ="},"T":{"type":"DT_FLOAT"},"strides":{"list":{"i":["1","1","1","1"]}}}},
          {"name":"PartitionedCall/Add_26","op":"AddV2","input":["PartitionedCall/convolution_17","unknown_52"],"attr":{"T":{"type":"DT_FLOAT"}}},
          {"name":"PartitionedCall/convolution_18","op":"Conv2D","input":["PartitionedCall/Add_26","PartitionedCall/split_18"],"device":"/device:CPU:0","attr":{"explicit_paddings":{"list":{}},"T":{"type":"DT_FLOAT"},"strides":{"list":{"i":["1","1","1","1"]}},"use_cudnn_on_gpu":{"b":true},"padding":{"s":"VkFMSUQ="},"data_format":{"s":"TkhXQw=="},"dilations":{"list":{"i":["1","1","1","1"]}}}},
          {"name":"PartitionedCall/transpose_80","op":"Transpose","input":["PartitionedCall/Add_26","PartitionedCall/transpose_80/perm"],"attr":{"T":{"type":"DT_FLOAT"},"Tperm":{"type":"DT_INT32"}}},
          {"name":"PartitionedCall/Add_27","op":"AddV2","input":["PartitionedCall/convolution_18","unknown_54"],"attr":{"T":{"type":"DT_FLOAT"}}},
          {"name":"PartitionedCall/transpose_83","op":"Transpose","input":["PartitionedCall/Add_27","PartitionedCall/transpose_83/perm"],"attr":{"Tperm":{"type":"DT_INT32"},"T":{"type":"DT_FLOAT"}}},
          {"name":"PartitionedCall/clip_by_value_18/Minimum","op":"Minimum","input":["PartitionedCall/transpose_83","PartitionedCall/clip_by_value_18/Minimum/y"],"attr":{"T":{"type":"DT_FLOAT"}}},
          {"name":"PartitionedCall/clip_by_value_18","op":"Maximum","input":["PartitionedCall/clip_by_value_18/Minimum","PartitionedCall/clip_by_value_18/y"],"attr":{"T":{"type":"DT_FLOAT"}}},
          {"name":"PartitionedCall/Pad_10","op":"Pad","input":["PartitionedCall/clip_by_value_18","PartitionedCall/Const_48"],"attr":{"T":{"type":"DT_FLOAT"},"Tpaddings":{"type":"DT_INT32"}}},
          {"name":"PartitionedCall/transpose_85","op":"Transpose","input":["PartitionedCall/Pad_10","PartitionedCall/transpose_85/perm"],"attr":{"Tperm":{"type":"DT_INT32"},"T":{"type":"DT_FLOAT"}}},
          {"name":"PartitionedCall/depthwise_9","op":"DepthwiseConv2dNative","input":["PartitionedCall/transpose_85","PartitionedCall/Reshape_9"],"attr":{"data_format":{"s":"TkhXQw=="},"dilations":{"list":{"i":["1","1","1","1"]}},"T":{"type":"DT_FLOAT"},"padding":{"s":"VkFMSUQ="},"explicit_paddings":{"list":{}},"strides":{"list":{"i":["1","1","1","1"]}}}},
          {"name":"PartitionedCall/Add_28","op":"AddV2","input":["PartitionedCall/depthwise_9","unknown_56"],"attr":{"T":{"type":"DT_FLOAT"}}},
          {"name":"PartitionedCall/transpose_86","op":"Transpose","input":["PartitionedCall/Add_28","PartitionedCall/transpose_86/perm"],"attr":{"T":{"type":"DT_FLOAT"},"Tperm":{"type":"DT_INT32"}}},
          {"name":"PartitionedCall/clip_by_value_19/Minimum","op":"Minimum","input":["PartitionedCall/transpose_86","PartitionedCall/clip_by_value_19/Minimum/y"],"attr":{"T":{"type":"DT_FLOAT"}}},
          {"name":"PartitionedCall/clip_by_value_19","op":"Maximum","input":["PartitionedCall/clip_by_value_19/Minimum","PartitionedCall/clip_by_value_19/y"],"attr":{"T":{"type":"DT_FLOAT"}}},
          {"name":"PartitionedCall/transpose_88","op":"Transpose","input":["PartitionedCall/clip_by_value_19","PartitionedCall/transpose_88/perm"],"attr":{"T":{"type":"DT_FLOAT"},"Tperm":{"type":"DT_INT32"}}},
          {"name":"PartitionedCall/convolution_19","op":"Conv2D","input":["PartitionedCall/transpose_88","PartitionedCall/split_19"],"device":"/device:CPU:0","attr":{"data_format":{"s":"TkhXQw=="},"use_cudnn_on_gpu":{"b":true},"padding":{"s":"VkFMSUQ="},"dilations":{"list":{"i":["1","1","1","1"]}},"explicit_paddings":{"list":{}},"strides":{"list":{"i":["1","1","1","1"]}},"T":{"type":"DT_FLOAT"}}},
          {"name":"PartitionedCall/Add_29","op":"AddV2","input":["PartitionedCall/convolution_19","unknown_58"],"attr":{"T":{"type":"DT_FLOAT"}}},
          {"name":"PartitionedCall/transpose_89","op":"Transpose","input":["PartitionedCall/Add_29","PartitionedCall/transpose_89/perm"],"attr":{"T":{"type":"DT_FLOAT"},"Tperm":{"type":"DT_INT32"}}},
          {"name":"PartitionedCall/onnx_tf_prefix_Add_54","op":"AddV2","input":["PartitionedCall/transpose_89","PartitionedCall/transpose_80"],"attr":{"T":{"type":"DT_FLOAT"}}},
          {"name":"PartitionedCall/transpose_91","op":"Transpose","input":["PartitionedCall/onnx_tf_prefix_Add_54","PartitionedCall/transpose_91/perm"],"attr":{"T":{"type":"DT_FLOAT"},"Tperm":{"type":"DT_INT32"}}},
          {"name":"PartitionedCall/convolution_20","op":"Conv2D","input":["PartitionedCall/transpose_91","PartitionedCall/split_20"],"device":"/device:CPU:0","attr":{"use_cudnn_on_gpu":{"b":true},"dilations":{"list":{"i":["1","1","1","1"]}},"strides":{"list":{"i":["1","1","1","1"]}},"T":{"type":"DT_FLOAT"},"data_format":{"s":"TkhXQw=="},"explicit_paddings":{"list":{}},"padding":{"s":"VkFMSUQ="}}},
          {"name":"PartitionedCall/Add_30","op":"AddV2","input":["PartitionedCall/convolution_20","unknown_60"],"attr":{"T":{"type":"DT_FLOAT"}}},
          {"name":"PartitionedCall/transpose_92","op":"Transpose","input":["PartitionedCall/Add_30","PartitionedCall/transpose_92/perm"],"attr":{"T":{"type":"DT_FLOAT"},"Tperm":{"type":"DT_INT32"}}},
          {"name":"PartitionedCall/clip_by_value_20/Minimum","op":"Minimum","input":["PartitionedCall/transpose_92","PartitionedCall/clip_by_value_20/Minimum/y"],"attr":{"T":{"type":"DT_FLOAT"}}},
          {"name":"PartitionedCall/clip_by_value_20","op":"Maximum","input":["PartitionedCall/clip_by_value_20/Minimum","PartitionedCall/clip_by_value_20/y"],"attr":{"T":{"type":"DT_FLOAT"}}},
          {"name":"PartitionedCall/Pad_11","op":"Pad","input":["PartitionedCall/clip_by_value_20","PartitionedCall/Const_53"],"attr":{"Tpaddings":{"type":"DT_INT32"},"T":{"type":"DT_FLOAT"}}},
          {"name":"PartitionedCall/transpose_94","op":"Transpose","input":["PartitionedCall/Pad_11","PartitionedCall/transpose_94/perm"],"attr":{"Tperm":{"type":"DT_INT32"},"T":{"type":"DT_FLOAT"}}},
          {"name":"PartitionedCall/depthwise_10","op":"DepthwiseConv2dNative","input":["PartitionedCall/transpose_94","PartitionedCall/Reshape_10"],"attr":{"explicit_paddings":{"list":{}},"strides":{"list":{"i":["1","1","1","1"]}},"padding":{"s":"VkFMSUQ="},"T":{"type":"DT_FLOAT"},"data_format":{"s":"TkhXQw=="},"dilations":{"list":{"i":["1","1","1","1"]}}}},
          {"name":"PartitionedCall/Add_31","op":"AddV2","input":["PartitionedCall/depthwise_10","unknown_62"],"attr":{"T":{"type":"DT_FLOAT"}}},
          {"name":"PartitionedCall/transpose_95","op":"Transpose","input":["PartitionedCall/Add_31","PartitionedCall/transpose_95/perm"],"attr":{"Tperm":{"type":"DT_INT32"},"T":{"type":"DT_FLOAT"}}},
          {"name":"PartitionedCall/clip_by_value_21/Minimum","op":"Minimum","input":["PartitionedCall/transpose_95","PartitionedCall/clip_by_value_21/Minimum/y"],"attr":{"T":{"type":"DT_FLOAT"}}},
          {"name":"PartitionedCall/clip_by_value_21","op":"Maximum","input":["PartitionedCall/clip_by_value_21/Minimum","PartitionedCall/clip_by_value_21/y"],"attr":{"T":{"type":"DT_FLOAT"}}},
          {"name":"PartitionedCall/transpose_97","op":"Transpose","input":["PartitionedCall/clip_by_value_21","PartitionedCall/transpose_97/perm"],"attr":{"T":{"type":"DT_FLOAT"},"Tperm":{"type":"DT_INT32"}}},
          {"name":"PartitionedCall/convolution_21","op":"Conv2D","input":["PartitionedCall/transpose_97","PartitionedCall/split_21"],"device":"/device:CPU:0","attr":{"strides":{"list":{"i":["1","1","1","1"]}},"explicit_paddings":{"list":{}},"use_cudnn_on_gpu":{"b":true},"dilations":{"list":{"i":["1","1","1","1"]}},"T":{"type":"DT_FLOAT"},"data_format":{"s":"TkhXQw=="},"padding":{"s":"VkFMSUQ="}}},
          {"name":"PartitionedCall/Add_32","op":"AddV2","input":["PartitionedCall/convolution_21","unknown_64"],"attr":{"T":{"type":"DT_FLOAT"}}},
          {"name":"PartitionedCall/transpose_98","op":"Transpose","input":["PartitionedCall/Add_32","PartitionedCall/transpose_98/perm"],"attr":{"Tperm":{"type":"DT_INT32"},"T":{"type":"DT_FLOAT"}}},
          {"name":"PartitionedCall/onnx_tf_prefix_Add_60","op":"AddV2","input":["PartitionedCall/transpose_98","PartitionedCall/onnx_tf_prefix_Add_54"],"attr":{"T":{"type":"DT_FLOAT"}}},
          {"name":"PartitionedCall/transpose_148","op":"Transpose","input":["PartitionedCall/onnx_tf_prefix_Add_60","PartitionedCall/transpose_148/perm"],"attr":{"T":{"type":"DT_FLOAT"},"Tperm":{"type":"DT_INT32"}}},
          {"name":"PartitionedCall/transpose_100","op":"Transpose","input":["PartitionedCall/onnx_tf_prefix_Add_60","PartitionedCall/transpose_100/perm"],"attr":{"T":{"type":"DT_FLOAT"},"Tperm":{"type":"DT_INT32"}}},
          {"name":"PartitionedCall/convolution_33","op":"Conv2D","input":["PartitionedCall/transpose_148","PartitionedCall/split_33"],"device":"/device:CPU:0","attr":{"data_format":{"s":"TkhXQw=="},"strides":{"list":{"i":["1","1","1","1"]}},"T":{"type":"DT_FLOAT"},"use_cudnn_on_gpu":{"b":true},"dilations":{"list":{"i":["1","1","1","1"]}},"padding":{"s":"VkFMSUQ="},"explicit_paddings":{"list":{}}}},
          {"name":"PartitionedCall/convolution_22","op":"Conv2D","input":["PartitionedCall/transpose_100","PartitionedCall/split_22"],"device":"/device:CPU:0","attr":{"dilations":{"list":{"i":["1","1","1","1"]}},"data_format":{"s":"TkhXQw=="},"T":{"type":"DT_FLOAT"},"strides":{"list":{"i":["1","1","1","1"]}},"explicit_paddings":{"list":{}},"use_cudnn_on_gpu":{"b":true},"padding":{"s":"VkFMSUQ="}}},
          {"name":"PartitionedCall/Add_49","op":"AddV2","input":["PartitionedCall/convolution_33","unknown_98"],"attr":{"T":{"type":"DT_FLOAT"}}},
          {"name":"PartitionedCall/Add_33","op":"AddV2","input":["PartitionedCall/convolution_22","unknown_66"],"attr":{"T":{"type":"DT_FLOAT"}}},
          {"name":"PartitionedCall/transpose_149","op":"Transpose","input":["PartitionedCall/Add_49","PartitionedCall/transpose_149/perm"],"attr":{"Tperm":{"type":"DT_INT32"},"T":{"type":"DT_FLOAT"}}},
          {"name":"PartitionedCall/transpose_101","op":"Transpose","input":["PartitionedCall/Add_33","PartitionedCall/transpose_101/perm"],"attr":{"T":{"type":"DT_FLOAT"},"Tperm":{"type":"DT_INT32"}}},
          {"name":"PartitionedCall/clip_by_value_22/Minimum","op":"Minimum","input":["PartitionedCall/transpose_101","PartitionedCall/clip_by_value_22/Minimum/y"],"attr":{"T":{"type":"DT_FLOAT"}}},
          {"name":"PartitionedCall/clip_by_value_22","op":"Maximum","input":["PartitionedCall/clip_by_value_22/Minimum","PartitionedCall/clip_by_value_22/y"],"attr":{"T":{"type":"DT_FLOAT"}}},
          {"name":"PartitionedCall/Pad_12","op":"Pad","input":["PartitionedCall/clip_by_value_22","PartitionedCall/Const_58"],"attr":{"T":{"type":"DT_FLOAT"},"Tpaddings":{"type":"DT_INT32"}}},
          {"name":"PartitionedCall/transpose_103","op":"Transpose","input":["PartitionedCall/Pad_12","PartitionedCall/transpose_103/perm"],"attr":{"Tperm":{"type":"DT_INT32"},"T":{"type":"DT_FLOAT"}}},
          {"name":"PartitionedCall/depthwise_11","op":"DepthwiseConv2dNative","input":["PartitionedCall/transpose_103","PartitionedCall/Reshape_11"],"attr":{"strides":{"list":{"i":["1","2","2","1"]}},"data_format":{"s":"TkhXQw=="},"padding":{"s":"VkFMSUQ="},"T":{"type":"DT_FLOAT"},"explicit_paddings":{"list":{}},"dilations":{"list":{"i":["1","1","1","1"]}}}},
          {"name":"PartitionedCall/Add_34","op":"AddV2","input":["PartitionedCall/depthwise_11","unknown_68"],"attr":{"T":{"type":"DT_FLOAT"}}},
          {"name":"PartitionedCall/transpose_104","op":"Transpose","input":["PartitionedCall/Add_34","PartitionedCall/transpose_104/perm"],"attr":{"T":{"type":"DT_FLOAT"},"Tperm":{"type":"DT_INT32"}}},
          {"name":"PartitionedCall/clip_by_value_23/Minimum","op":"Minimum","input":["PartitionedCall/transpose_104","PartitionedCall/clip_by_value_23/Minimum/y"],"attr":{"T":{"type":"DT_FLOAT"}}},
          {"name":"PartitionedCall/clip_by_value_23","op":"Maximum","input":["PartitionedCall/clip_by_value_23/Minimum","PartitionedCall/clip_by_value_23/y"],"attr":{"T":{"type":"DT_FLOAT"}}},
          {"name":"PartitionedCall/transpose_106","op":"Transpose","input":["PartitionedCall/clip_by_value_23","PartitionedCall/transpose_106/perm"],"attr":{"Tperm":{"type":"DT_INT32"},"T":{"type":"DT_FLOAT"}}},
          {"name":"PartitionedCall/convolution_23","op":"Conv2D","input":["PartitionedCall/transpose_106","PartitionedCall/split_23"],"device":"/device:CPU:0","attr":{"T":{"type":"DT_FLOAT"},"explicit_paddings":{"list":{}},"dilations":{"list":{"i":["1","1","1","1"]}},"strides":{"list":{"i":["1","1","1","1"]}},"padding":{"s":"VkFMSUQ="},"use_cudnn_on_gpu":{"b":true},"data_format":{"s":"TkhXQw=="}}},
          {"name":"PartitionedCall/Add_35","op":"AddV2","input":["PartitionedCall/convolution_23","unknown_70"],"attr":{"T":{"type":"DT_FLOAT"}}},
          {"name":"PartitionedCall/convolution_24","op":"Conv2D","input":["PartitionedCall/Add_35","PartitionedCall/split_24"],"device":"/device:CPU:0","attr":{"dilations":{"list":{"i":["1","1","1","1"]}},"padding":{"s":"VkFMSUQ="},"T":{"type":"DT_FLOAT"},"data_format":{"s":"TkhXQw=="},"use_cudnn_on_gpu":{"b":true},"explicit_paddings":{"list":{}},"strides":{"list":{"i":["1","1","1","1"]}}}},
          {"name":"PartitionedCall/transpose_107","op":"Transpose","input":["PartitionedCall/Add_35","PartitionedCall/transpose_107/perm"],"attr":{"T":{"type":"DT_FLOAT"},"Tperm":{"type":"DT_INT32"}}},
          {"name":"PartitionedCall/Add_36","op":"AddV2","input":["PartitionedCall/convolution_24","unknown_72"],"attr":{"T":{"type":"DT_FLOAT"}}},
          {"name":"PartitionedCall/transpose_110","op":"Transpose","input":["PartitionedCall/Add_36","PartitionedCall/transpose_110/perm"],"attr":{"T":{"type":"DT_FLOAT"},"Tperm":{"type":"DT_INT32"}}},
          {"name":"PartitionedCall/clip_by_value_24/Minimum","op":"Minimum","input":["PartitionedCall/transpose_110","PartitionedCall/clip_by_value_24/Minimum/y"],"attr":{"T":{"type":"DT_FLOAT"}}},
          {"name":"PartitionedCall/clip_by_value_24","op":"Maximum","input":["PartitionedCall/clip_by_value_24/Minimum","PartitionedCall/clip_by_value_24/y"],"attr":{"T":{"type":"DT_FLOAT"}}},
          {"name":"PartitionedCall/Pad_13","op":"Pad","input":["PartitionedCall/clip_by_value_24","PartitionedCall/Const_63"],"attr":{"Tpaddings":{"type":"DT_INT32"},"T":{"type":"DT_FLOAT"}}},
          {"name":"PartitionedCall/transpose_112","op":"Transpose","input":["PartitionedCall/Pad_13","PartitionedCall/transpose_112/perm"],"attr":{"Tperm":{"type":"DT_INT32"},"T":{"type":"DT_FLOAT"}}},
          {"name":"PartitionedCall/depthwise_12","op":"DepthwiseConv2dNative","input":["PartitionedCall/transpose_112","PartitionedCall/Reshape_12"],"attr":{"T":{"type":"DT_FLOAT"},"dilations":{"list":{"i":["1","1","1","1"]}},"explicit_paddings":{"list":{}},"padding":{"s":"VkFMSUQ="},"strides":{"list":{"i":["1","1","1","1"]}},"data_format":{"s":"TkhXQw=="}}},
          {"name":"PartitionedCall/Add_37","op":"AddV2","input":["PartitionedCall/depthwise_12","unknown_74"],"attr":{"T":{"type":"DT_FLOAT"}}},
          {"name":"PartitionedCall/transpose_113","op":"Transpose","input":["PartitionedCall/Add_37","PartitionedCall/transpose_113/perm"],"attr":{"Tperm":{"type":"DT_INT32"},"T":{"type":"DT_FLOAT"}}},
          {"name":"PartitionedCall/clip_by_value_25/Minimum","op":"Minimum","input":["PartitionedCall/transpose_113","PartitionedCall/clip_by_value_25/Minimum/y"],"attr":{"T":{"type":"DT_FLOAT"}}},
          {"name":"PartitionedCall/clip_by_value_25","op":"Maximum","input":["PartitionedCall/clip_by_value_25/Minimum","PartitionedCall/clip_by_value_25/y"],"attr":{"T":{"type":"DT_FLOAT"}}},
          {"name":"PartitionedCall/transpose_115","op":"Transpose","input":["PartitionedCall/clip_by_value_25","PartitionedCall/transpose_115/perm"],"attr":{"T":{"type":"DT_FLOAT"},"Tperm":{"type":"DT_INT32"}}},
          {"name":"PartitionedCall/convolution_25","op":"Conv2D","input":["PartitionedCall/transpose_115","PartitionedCall/split_25"],"device":"/device:CPU:0","attr":{"use_cudnn_on_gpu":{"b":true},"padding":{"s":"VkFMSUQ="},"data_format":{"s":"TkhXQw=="},"explicit_paddings":{"list":{}},"dilations":{"list":{"i":["1","1","1","1"]}},"T":{"type":"DT_FLOAT"},"strides":{"list":{"i":["1","1","1","1"]}}}},
          {"name":"PartitionedCall/Add_38","op":"AddV2","input":["PartitionedCall/convolution_25","unknown_76"],"attr":{"T":{"type":"DT_FLOAT"}}},
          {"name":"PartitionedCall/transpose_116","op":"Transpose","input":["PartitionedCall/Add_38","PartitionedCall/transpose_116/perm"],"attr":{"T":{"type":"DT_FLOAT"},"Tperm":{"type":"DT_INT32"}}},
          {"name":"PartitionedCall/onnx_tf_prefix_Add_71","op":"AddV2","input":["PartitionedCall/transpose_116","PartitionedCall/transpose_107"],"attr":{"T":{"type":"DT_FLOAT"}}},
          {"name":"PartitionedCall/transpose_118","op":"Transpose","input":["PartitionedCall/onnx_tf_prefix_Add_71","PartitionedCall/transpose_118/perm"],"attr":{"Tperm":{"type":"DT_INT32"},"T":{"type":"DT_FLOAT"}}},
          {"name":"PartitionedCall/convolution_26","op":"Conv2D","input":["PartitionedCall/transpose_118","PartitionedCall/split_26"],"device":"/device:CPU:0","attr":{"explicit_paddings":{"list":{}},"use_cudnn_on_gpu":{"b":true},"padding":{"s":"VkFMSUQ="},"T":{"type":"DT_FLOAT"},"strides":{"list":{"i":["1","1","1","1"]}},"dilations":{"list":{"i":["1","1","1","1"]}},"data_format":{"s":"TkhXQw=="}}},
          {"name":"PartitionedCall/Add_39","op":"AddV2","input":["PartitionedCall/convolution_26","unknown_78"],"attr":{"T":{"type":"DT_FLOAT"}}},
          {"name":"PartitionedCall/transpose_119","op":"Transpose","input":["PartitionedCall/Add_39","PartitionedCall/transpose_119/perm"],"attr":{"T":{"type":"DT_FLOAT"},"Tperm":{"type":"DT_INT32"}}},
          {"name":"PartitionedCall/clip_by_value_26/Minimum","op":"Minimum","input":["PartitionedCall/transpose_119","PartitionedCall/clip_by_value_26/Minimum/y"],"attr":{"T":{"type":"DT_FLOAT"}}},
          {"name":"PartitionedCall/clip_by_value_26","op":"Maximum","input":["PartitionedCall/clip_by_value_26/Minimum","PartitionedCall/clip_by_value_26/y"],"attr":{"T":{"type":"DT_FLOAT"}}},
          {"name":"PartitionedCall/Pad_14","op":"Pad","input":["PartitionedCall/clip_by_value_26","PartitionedCall/Const_68"],"attr":{"Tpaddings":{"type":"DT_INT32"},"T":{"type":"DT_FLOAT"}}},
          {"name":"PartitionedCall/transpose_121","op":"Transpose","input":["PartitionedCall/Pad_14","PartitionedCall/transpose_121/perm"],"attr":{"Tperm":{"type":"DT_INT32"},"T":{"type":"DT_FLOAT"}}},
          {"name":"PartitionedCall/depthwise_13","op":"DepthwiseConv2dNative","input":["PartitionedCall/transpose_121","PartitionedCall/Reshape_13"],"attr":{"dilations":{"list":{"i":["1","1","1","1"]}},"padding":{"s":"VkFMSUQ="},"data_format":{"s":"TkhXQw=="},"explicit_paddings":{"list":{}},"strides":{"list":{"i":["1","1","1","1"]}},"T":{"type":"DT_FLOAT"}}},
          {"name":"PartitionedCall/Add_40","op":"AddV2","input":["PartitionedCall/depthwise_13","unknown_80"],"attr":{"T":{"type":"DT_FLOAT"}}},
          {"name":"PartitionedCall/transpose_122","op":"Transpose","input":["PartitionedCall/Add_40","PartitionedCall/transpose_122/perm"],"attr":{"Tperm":{"type":"DT_INT32"},"T":{"type":"DT_FLOAT"}}},
          {"name":"PartitionedCall/clip_by_value_27/Minimum","op":"Minimum","input":["PartitionedCall/transpose_122","PartitionedCall/clip_by_value_27/Minimum/y"],"attr":{"T":{"type":"DT_FLOAT"}}},
          {"name":"PartitionedCall/clip_by_value_27","op":"Maximum","input":["PartitionedCall/clip_by_value_27/Minimum","PartitionedCall/clip_by_value_27/y"],"attr":{"T":{"type":"DT_FLOAT"}}},
          {"name":"PartitionedCall/transpose_124","op":"Transpose","input":["PartitionedCall/clip_by_value_27","PartitionedCall/transpose_124/perm"],"attr":{"Tperm":{"type":"DT_INT32"},"T":{"type":"DT_FLOAT"}}},
          {"name":"PartitionedCall/convolution_27","op":"Conv2D","input":["PartitionedCall/transpose_124","PartitionedCall/split_27"],"device":"/device:CPU:0","attr":{"dilations":{"list":{"i":["1","1","1","1"]}},"use_cudnn_on_gpu":{"b":true},"T":{"type":"DT_FLOAT"},"data_format":{"s":"TkhXQw=="},"strides":{"list":{"i":["1","1","1","1"]}},"padding":{"s":"VkFMSUQ="},"explicit_paddings":{"list":{}}}},
          {"name":"PartitionedCall/Add_41","op":"AddV2","input":["PartitionedCall/convolution_27","unknown_82"],"attr":{"T":{"type":"DT_FLOAT"}}},
          {"name":"PartitionedCall/transpose_125","op":"Transpose","input":["PartitionedCall/Add_41","PartitionedCall/transpose_125/perm"],"attr":{"Tperm":{"type":"DT_INT32"},"T":{"type":"DT_FLOAT"}}},
          {"name":"PartitionedCall/onnx_tf_prefix_Add_77","op":"AddV2","input":["PartitionedCall/transpose_125","PartitionedCall/onnx_tf_prefix_Add_71"],"attr":{"T":{"type":"DT_FLOAT"}}},
          {"name":"PartitionedCall/transpose_127","op":"Transpose","input":["PartitionedCall/onnx_tf_prefix_Add_77","PartitionedCall/transpose_127/perm"],"attr":{"Tperm":{"type":"DT_INT32"},"T":{"type":"DT_FLOAT"}}},
          {"name":"PartitionedCall/convolution_28","op":"Conv2D","input":["PartitionedCall/transpose_127","PartitionedCall/split_28"],"device":"/device:CPU:0","attr":{"dilations":{"list":{"i":["1","1","1","1"]}},"explicit_paddings":{"list":{}},"data_format":{"s":"TkhXQw=="},"padding":{"s":"VkFMSUQ="},"strides":{"list":{"i":["1","1","1","1"]}},"use_cudnn_on_gpu":{"b":true},"T":{"type":"DT_FLOAT"}}},
          {"name":"PartitionedCall/Add_42","op":"AddV2","input":["PartitionedCall/convolution_28","unknown_84"],"attr":{"T":{"type":"DT_FLOAT"}}},
          {"name":"PartitionedCall/transpose_128","op":"Transpose","input":["PartitionedCall/Add_42","PartitionedCall/transpose_128/perm"],"attr":{"T":{"type":"DT_FLOAT"},"Tperm":{"type":"DT_INT32"}}},
          {"name":"PartitionedCall/clip_by_value_28/Minimum","op":"Minimum","input":["PartitionedCall/transpose_128","PartitionedCall/clip_by_value_28/Minimum/y"],"attr":{"T":{"type":"DT_FLOAT"}}},
          {"name":"PartitionedCall/clip_by_value_28","op":"Maximum","input":["PartitionedCall/clip_by_value_28/Minimum","PartitionedCall/clip_by_value_28/y"],"attr":{"T":{"type":"DT_FLOAT"}}},
          {"name":"PartitionedCall/Pad_15","op":"Pad","input":["PartitionedCall/clip_by_value_28","PartitionedCall/Const_73"],"attr":{"T":{"type":"DT_FLOAT"},"Tpaddings":{"type":"DT_INT32"}}},
          {"name":"PartitionedCall/transpose_130","op":"Transpose","input":["PartitionedCall/Pad_15","PartitionedCall/transpose_130/perm"],"attr":{"T":{"type":"DT_FLOAT"},"Tperm":{"type":"DT_INT32"}}},
          {"name":"PartitionedCall/depthwise_14","op":"DepthwiseConv2dNative","input":["PartitionedCall/transpose_130","PartitionedCall/Reshape_14"],"attr":{"dilations":{"list":{"i":["1","1","1","1"]}},"T":{"type":"DT_FLOAT"},"explicit_paddings":{"list":{}},"padding":{"s":"VkFMSUQ="},"data_format":{"s":"TkhXQw=="},"strides":{"list":{"i":["1","1","1","1"]}}}},
          {"name":"PartitionedCall/Add_43","op":"AddV2","input":["PartitionedCall/depthwise_14","unknown_86"],"attr":{"T":{"type":"DT_FLOAT"}}},
          {"name":"PartitionedCall/transpose_131","op":"Transpose","input":["PartitionedCall/Add_43","PartitionedCall/transpose_131/perm"],"attr":{"Tperm":{"type":"DT_INT32"},"T":{"type":"DT_FLOAT"}}},
          {"name":"PartitionedCall/clip_by_value_29/Minimum","op":"Minimum","input":["PartitionedCall/transpose_131","PartitionedCall/clip_by_value_29/Minimum/y"],"attr":{"T":{"type":"DT_FLOAT"}}},
          {"name":"PartitionedCall/clip_by_value_29","op":"Maximum","input":["PartitionedCall/clip_by_value_29/Minimum","PartitionedCall/clip_by_value_29/y"],"attr":{"T":{"type":"DT_FLOAT"}}},
          {"name":"PartitionedCall/transpose_133","op":"Transpose","input":["PartitionedCall/clip_by_value_29","PartitionedCall/transpose_133/perm"],"attr":{"Tperm":{"type":"DT_INT32"},"T":{"type":"DT_FLOAT"}}},
          {"name":"PartitionedCall/convolution_29","op":"Conv2D","input":["PartitionedCall/transpose_133","PartitionedCall/split_29"],"device":"/device:CPU:0","attr":{"padding":{"s":"VkFMSUQ="},"dilations":{"list":{"i":["1","1","1","1"]}},"use_cudnn_on_gpu":{"b":true},"strides":{"list":{"i":["1","1","1","1"]}},"data_format":{"s":"TkhXQw=="},"explicit_paddings":{"list":{}},"T":{"type":"DT_FLOAT"}}},
          {"name":"PartitionedCall/Add_44","op":"AddV2","input":["PartitionedCall/convolution_29","unknown_88"],"attr":{"T":{"type":"DT_FLOAT"}}},
          {"name":"PartitionedCall/transpose_134","op":"Transpose","input":["PartitionedCall/Add_44","PartitionedCall/transpose_134/perm"],"attr":{"Tperm":{"type":"DT_INT32"},"T":{"type":"DT_FLOAT"}}},
          {"name":"PartitionedCall/onnx_tf_prefix_Add_83","op":"AddV2","input":["PartitionedCall/transpose_134","PartitionedCall/onnx_tf_prefix_Add_77"],"attr":{"T":{"type":"DT_FLOAT"}}},
          {"name":"PartitionedCall/transpose_136","op":"Transpose","input":["PartitionedCall/onnx_tf_prefix_Add_83","PartitionedCall/transpose_136/perm"],"attr":{"Tperm":{"type":"DT_INT32"},"T":{"type":"DT_FLOAT"}}},
          {"name":"PartitionedCall/convolution_30","op":"Conv2D","input":["PartitionedCall/transpose_136","PartitionedCall/split_30"],"device":"/device:CPU:0","attr":{"data_format":{"s":"TkhXQw=="},"explicit_paddings":{"list":{}},"strides":{"list":{"i":["1","1","1","1"]}},"dilations":{"list":{"i":["1","1","1","1"]}},"use_cudnn_on_gpu":{"b":true},"padding":{"s":"VkFMSUQ="},"T":{"type":"DT_FLOAT"}}},
          {"name":"PartitionedCall/Add_45","op":"AddV2","input":["PartitionedCall/convolution_30","unknown_90"],"attr":{"T":{"type":"DT_FLOAT"}}},
          {"name":"PartitionedCall/transpose_137","op":"Transpose","input":["PartitionedCall/Add_45","PartitionedCall/transpose_137/perm"],"attr":{"Tperm":{"type":"DT_INT32"},"T":{"type":"DT_FLOAT"}}},
          {"name":"PartitionedCall/clip_by_value_30/Minimum","op":"Minimum","input":["PartitionedCall/transpose_137","PartitionedCall/clip_by_value_30/Minimum/y"],"attr":{"T":{"type":"DT_FLOAT"}}},
          {"name":"PartitionedCall/clip_by_value_30","op":"Maximum","input":["PartitionedCall/clip_by_value_30/Minimum","PartitionedCall/clip_by_value_30/y"],"attr":{"T":{"type":"DT_FLOAT"}}},
          {"name":"PartitionedCall/Pad_16","op":"Pad","input":["PartitionedCall/clip_by_value_30","PartitionedCall/Const_78"],"attr":{"Tpaddings":{"type":"DT_INT32"},"T":{"type":"DT_FLOAT"}}},
          {"name":"PartitionedCall/transpose_139","op":"Transpose","input":["PartitionedCall/Pad_16","PartitionedCall/transpose_139/perm"],"attr":{"T":{"type":"DT_FLOAT"},"Tperm":{"type":"DT_INT32"}}},
          {"name":"PartitionedCall/depthwise_15","op":"DepthwiseConv2dNative","input":["PartitionedCall/transpose_139","PartitionedCall/Reshape_15"],"attr":{"dilations":{"list":{"i":["1","1","1","1"]}},"strides":{"list":{"i":["1","1","1","1"]}},"explicit_paddings":{"list":{}},"padding":{"s":"VkFMSUQ="},"T":{"type":"DT_FLOAT"},"data_format":{"s":"TkhXQw=="}}},
          {"name":"PartitionedCall/Add_46","op":"AddV2","input":["PartitionedCall/depthwise_15","unknown_92"],"attr":{"T":{"type":"DT_FLOAT"}}},
          {"name":"PartitionedCall/transpose_140","op":"Transpose","input":["PartitionedCall/Add_46","PartitionedCall/transpose_140/perm"],"attr":{"Tperm":{"type":"DT_INT32"},"T":{"type":"DT_FLOAT"}}},
          {"name":"PartitionedCall/clip_by_value_31/Minimum","op":"Minimum","input":["PartitionedCall/transpose_140","PartitionedCall/clip_by_value_31/Minimum/y"],"attr":{"T":{"type":"DT_FLOAT"}}},
          {"name":"PartitionedCall/clip_by_value_31","op":"Maximum","input":["PartitionedCall/clip_by_value_31/Minimum","PartitionedCall/clip_by_value_31/y"],"attr":{"T":{"type":"DT_FLOAT"}}},
          {"name":"PartitionedCall/transpose_142","op":"Transpose","input":["PartitionedCall/clip_by_value_31","PartitionedCall/transpose_142/perm"],"attr":{"Tperm":{"type":"DT_INT32"},"T":{"type":"DT_FLOAT"}}},
          {"name":"PartitionedCall/convolution_31","op":"Conv2D","input":["PartitionedCall/transpose_142","PartitionedCall/split_31"],"device":"/device:CPU:0","attr":{"dilations":{"list":{"i":["1","1","1","1"]}},"use_cudnn_on_gpu":{"b":true},"T":{"type":"DT_FLOAT"},"explicit_paddings":{"list":{}},"data_format":{"s":"TkhXQw=="},"padding":{"s":"VkFMSUQ="},"strides":{"list":{"i":["1","1","1","1"]}}}},
          {"name":"PartitionedCall/Add_47","op":"AddV2","input":["PartitionedCall/convolution_31","unknown_94"],"attr":{"T":{"type":"DT_FLOAT"}}},
          {"name":"PartitionedCall/convolution_34","op":"Conv2D","input":["PartitionedCall/Add_47","PartitionedCall/split_34"],"device":"/device:CPU:0","attr":{"use_cudnn_on_gpu":{"b":true},"data_format":{"s":"TkhXQw=="},"strides":{"list":{"i":["1","1","1","1"]}},"explicit_paddings":{"list":{}},"padding":{"s":"VkFMSUQ="},"dilations":{"list":{"i":["1","1","1","1"]}},"T":{"type":"DT_FLOAT"}}},
          {"name":"PartitionedCall/Add_50","op":"AddV2","input":["PartitionedCall/convolution_34","unknown_100"],"attr":{"T":{"type":"DT_FLOAT"}}},
          {"name":"PartitionedCall/transpose_152","op":"Transpose","input":["PartitionedCall/Add_50","PartitionedCall/transpose_152/perm"],"attr":{"Tperm":{"type":"DT_INT32"},"T":{"type":"DT_FLOAT"}}},
          {"name":"PartitionedCall/resize/ResizeBilinear","op":"ResizeBilinear","input":["PartitionedCall/Add_50","PartitionedCall/Cast_1"],"attr":{"half_pixel_centers":{"b":true},"T":{"type":"DT_FLOAT"},"align_corners":{"b":false}}},
          {"name":"PartitionedCall/transpose_154","op":"Transpose","input":["PartitionedCall/resize/ResizeBilinear","PartitionedCall/transpose_154/perm"],"attr":{"Tperm":{"type":"DT_INT32"},"T":{"type":"DT_FLOAT"}}},
          {"name":"PartitionedCall/onnx_tf_prefix_Add_93","op":"AddV2","input":["PartitionedCall/transpose_149","PartitionedCall/transpose_154"],"attr":{"T":{"type":"DT_FLOAT"}}},
          {"name":"PartitionedCall/transpose_155","op":"Transpose","input":["PartitionedCall/onnx_tf_prefix_Add_93","PartitionedCall/transpose_155/perm"],"attr":{"Tperm":{"type":"DT_INT32"},"T":{"type":"DT_FLOAT"}}},
          {"name":"PartitionedCall/resize_1/ResizeBilinear","op":"ResizeBilinear","input":["PartitionedCall/transpose_155","PartitionedCall/Cast_3"],"attr":{"half_pixel_centers":{"b":true},"T":{"type":"DT_FLOAT"},"align_corners":{"b":false}}},
          {"name":"PartitionedCall/transpose_156","op":"Transpose","input":["PartitionedCall/resize_1/ResizeBilinear","PartitionedCall/transpose_156/perm"],"attr":{"Tperm":{"type":"DT_INT32"},"T":{"type":"DT_FLOAT"}}},
          {"name":"PartitionedCall/onnx_tf_prefix_Add_95","op":"AddV2","input":["PartitionedCall/transpose_146","PartitionedCall/transpose_156"],"attr":{"T":{"type":"DT_FLOAT"}}},
          {"name":"PartitionedCall/transpose_157","op":"Transpose","input":["PartitionedCall/onnx_tf_prefix_Add_95","PartitionedCall/transpose_157/perm"],"attr":{"T":{"type":"DT_FLOAT"},"Tperm":{"type":"DT_INT32"}}},
          {"name":"PartitionedCall/Pad_17","op":"Pad","input":["PartitionedCall/onnx_tf_prefix_Add_95","PartitionedCall/Const_81"],"attr":{"T":{"type":"DT_FLOAT"},"Tpaddings":{"type":"DT_INT32"}}},
          {"name":"PartitionedCall/resize_2/ResizeBilinear","op":"ResizeBilinear","input":["PartitionedCall/transpose_157","PartitionedCall/Cast_5"],"attr":{"align_corners":{"b":false},"T":{"type":"DT_FLOAT"},"half_pixel_centers":{"b":true}}},
          {"name":"PartitionedCall/transpose_162","op":"Transpose","input":["PartitionedCall/Pad_17","PartitionedCall/transpose_162/perm"],"attr":{"T":{"type":"DT_FLOAT"},"Tperm":{"type":"DT_INT32"}}},
          {"name":"PartitionedCall/transpose_158","op":"Transpose","input":["PartitionedCall/resize_2/ResizeBilinear","PartitionedCall/transpose_158/perm"],"attr":{"Tperm":{"type":"DT_INT32"},"T":{"type":"DT_FLOAT"}}},
          {"name":"PartitionedCall/depthwise_16","op":"DepthwiseConv2dNative","input":["PartitionedCall/transpose_162","PartitionedCall/Reshape_16"],"attr":{"data_format":{"s":"TkhXQw=="},"explicit_paddings":{"list":{}},"padding":{"s":"VkFMSUQ="},"T":{"type":"DT_FLOAT"},"strides":{"list":{"i":["1","1","1","1"]}},"dilations":{"list":{"i":["1","1","1","1"]}}}},
          {"name":"PartitionedCall/onnx_tf_prefix_Add_97","op":"AddV2","input":["PartitionedCall/onnx_tf_prefix_Add_93","PartitionedCall/transpose_158"],"attr":{"T":{"type":"DT_FLOAT"}}},
          {"name":"PartitionedCall/Add_51","op":"AddV2","input":["PartitionedCall/depthwise_16","unknown_104"],"attr":{"T":{"type":"DT_FLOAT"}}},
          {"name":"PartitionedCall/Pad_19","op":"Pad","input":["PartitionedCall/onnx_tf_prefix_Add_97","PartitionedCall/Const_94"],"attr":{"Tpaddings":{"type":"DT_INT32"},"T":{"type":"DT_FLOAT"}}},
          {"name":"PartitionedCall/transpose_159","op":"Transpose","input":["PartitionedCall/onnx_tf_prefix_Add_97","PartitionedCall/transpose_159/perm"],"attr":{"Tperm":{"type":"DT_INT32"},"T":{"type":"DT_FLOAT"}}},
          {"name":"PartitionedCall/transpose_163","op":"Transpose","input":["PartitionedCall/Add_51","PartitionedCall/transpose_163/perm"],"attr":{"T":{"type":"DT_FLOAT"},"Tperm":{"type":"DT_INT32"}}},
          {"name":"PartitionedCall/transpose_177","op":"Transpose","input":["PartitionedCall/Pad_19","PartitionedCall/transpose_177/perm"],"attr":{"Tperm":{"type":"DT_INT32"},"T":{"type":"DT_FLOAT"}}},
          {"name":"PartitionedCall/resize_3/ResizeBilinear","op":"ResizeBilinear","input":["PartitionedCall/transpose_159","PartitionedCall/Cast_7"],"attr":{"align_corners":{"b":false},"half_pixel_centers":{"b":true},"T":{"type":"DT_FLOAT"}}},
          {"name":"PartitionedCall/clip_by_value_32/Minimum","op":"Minimum","input":["PartitionedCall/transpose_163","PartitionedCall/clip_by_value_32/Minimum/y"],"attr":{"T":{"type":"DT_FLOAT"}}},
          {"name":"PartitionedCall/depthwise_18","op":"DepthwiseConv2dNative","input":["PartitionedCall/transpose_177","PartitionedCall/Reshape_18"],"attr":{"data_format":{"s":"TkhXQw=="},"padding":{"s":"VkFMSUQ="},"explicit_paddings":{"list":{}},"strides":{"list":{"i":["1","1","1","1"]}},"dilations":{"list":{"i":["1","1","1","1"]}},"T":{"type":"DT_FLOAT"}}},
          {"name":"PartitionedCall/transpose_160","op":"Transpose","input":["PartitionedCall/resize_3/ResizeBilinear","PartitionedCall/transpose_160/perm"],"attr":{"T":{"type":"DT_FLOAT"},"Tperm":{"type":"DT_INT32"}}},
          {"name":"PartitionedCall/clip_by_value_32","op":"Maximum","input":["PartitionedCall/clip_by_value_32/Minimum","PartitionedCall/clip_by_value_32/y"],"attr":{"T":{"type":"DT_FLOAT"}}},
          {"name":"PartitionedCall/Add_58","op":"AddV2","input":["PartitionedCall/depthwise_18","unknown_116"],"attr":{"T":{"type":"DT_FLOAT"}}},
          {"name":"PartitionedCall/onnx_tf_prefix_Add_99","op":"AddV2","input":["PartitionedCall/transpose_152","PartitionedCall/transpose_160"],"attr":{"T":{"type":"DT_FLOAT"}}},
          {"name":"PartitionedCall/transpose_165","op":"Transpose","input":["PartitionedCall/clip_by_value_32","PartitionedCall/transpose_165/perm"],"attr":{"T":{"type":"DT_FLOAT"},"Tperm":{"type":"DT_INT32"}}},
          {"name":"PartitionedCall/transpose_178","op":"Transpose","input":["PartitionedCall/Add_58","PartitionedCall/transpose_178/perm"],"attr":{"Tperm":{"type":"DT_INT32"},"T":{"type":"DT_FLOAT"}}},
          {"name":"PartitionedCall/Pad_21","op":"Pad","input":["PartitionedCall/onnx_tf_prefix_Add_99","PartitionedCall/Const_107"],"attr":{"Tpaddings":{"type":"DT_INT32"},"T":{"type":"DT_FLOAT"}}},
          {"name":"PartitionedCall/convolution_35","op":"Conv2D","input":["PartitionedCall/transpose_165","PartitionedCall/split_35"],"device":"/device:CPU:0","attr":{"use_cudnn_on_gpu":{"b":true},"strides":{"list":{"i":["1","1","1","1"]}},"explicit_paddings":{"list":{}},"T":{"type":"DT_FLOAT"},"padding":{"s":"VkFMSUQ="},"dilations":{"list":{"i":["1","1","1","1"]}},"data_format":{"s":"TkhXQw=="}}},
          {"name":"PartitionedCall/clip_by_value_36/Minimum","op":"Minimum","input":["PartitionedCall/transpose_178","PartitionedCall/clip_by_value_36/Minimum/y"],"attr":{"T":{"type":"DT_FLOAT"}}},
          {"name":"PartitionedCall/transpose_192","op":"Transpose","input":["PartitionedCall/Pad_21","PartitionedCall/transpose_192/perm"],"attr":{"T":{"type":"DT_FLOAT"},"Tperm":{"type":"DT_INT32"}}},
          {"name":"PartitionedCall/Add_52","op":"AddV2","input":["PartitionedCall/convolution_35","unknown_106"],"attr":{"T":{"type":"DT_FLOAT"}}},
          {"name":"PartitionedCall/clip_by_value_36","op":"Maximum","input":["PartitionedCall/clip_by_value_36/Minimum","PartitionedCall/clip_by_value_36/y"],"attr":{"T":{"type":"DT_FLOAT"}}},
…
          {"name":"PartitionedCall/transpose_166","op":"Transpose","input":["PartitionedCall/Add_52","PartitionedCall/transpose_166/perm"],"attr":{"T":{"type":"DT_FLOAT"},"Tperm":{"type":"DT_INT32"}}},
          {"name":"PartitionedCall/transpose_180","op":"Transpose","input":["PartitionedCall/clip_by_value_36","PartitionedCall/transpose_180/perm"],"attr":{"Tperm":{"type":"DT_INT32"},"T":{"type":"DT_FLOAT"}}},
          {"name":"PartitionedCall/Add_65","op":"AddV2","input":["PartitionedCall/depthwise_20","unknown_126"],"attr":{"T":{"type":"DT_FLOAT"}}},
          {"name":"PartitionedCall/clip_by_value_33/Minimum","op":"Minimum","input":["PartitionedCall/transpose_166","PartitionedCall/clip_by_value_33/Minimum/y"],"attr":{"T":{"type":"DT_FLOAT"}}},
          {"name":"PartitionedCall/convolution_38","op":"Conv2D","input":["PartitionedCall/transpose_180","PartitionedCall/split_38"],"device":"/device:CPU:0","attr":{"use_cudnn_on_gpu":{"b":true},"T":{"type":"DT_FLOAT"},"dilations":{"list":{"i":["1","1","1","1"]}},"data_format":{"s":"TkhXQw=="},"explicit_paddings":{"list":{}},"padding":{"s":"VkFMSUQ="},"strides":{"list":{"i":["1","1","1","1"]}}}},
          {"name":"PartitionedCall/transpose_193","op":"Transpose","input":["PartitionedCall/Add_65","PartitionedCall/transpose_193/perm"],"attr":{"Tperm":{"type":"DT_INT32"},"T":{"type":"DT_FLOAT"}}},
          {"name":"PartitionedCall/clip_by_value_33","op":"Maximum","input":["PartitionedCall/clip_by_value_33/Minimum","PartitionedCall/clip_by_value_33/y"],"attr":{"T":{"type":"DT_FLOAT"}}},
          {"name":"PartitionedCall/Add_59","op":"AddV2","input":["PartitionedCall/convolution_38","unknown_118"],"attr":{"T":{"type":"DT_FLOAT"}}},
          {"name":"PartitionedCall/clip_by_value_40/Minimum","op":"Minimum","input":["PartitionedCall/transpose_193","PartitionedCall/clip_by_value_40/Minimum/y"],"attr":{"T":{"type":"DT_FLOAT"}}},
          {"name":"PartitionedCall/Pad_18","op":"Pad","input":["PartitionedCall/clip_by_value_33","PartitionedCall/Const_86"],"attr":{"Tpaddings":{"type":"DT_INT32"},"T":{"type":"DT_FLOAT"}}},
          {"name":"PartitionedCall/transpose_181","op":"Transpose","input":["PartitionedCall/Add_59","PartitionedCall/transpose_181/perm"],"attr":{"T":{"type":"DT_FLOAT"},"Tperm":{"type":"DT_INT32"}}},
          {"name":"PartitionedCall/clip_by_value_40","op":"Maximum","input":["PartitionedCall/clip_by_value_40/Minimum","PartitionedCall/clip_by_value_40/y"],"attr":{"T":{"type":"DT_FLOAT"}}},
          {"name":"PartitionedCall/transpose_168","op":"Transpose","input":["PartitionedCall/Pad_18","PartitionedCall/transpose_168/perm"],"attr":{"T":{"type":"DT_FLOAT"},"Tperm":{"type":"DT_INT32"}}},
          {"name":"PartitionedCall/clip_by_value_37/Minimum","op":"Minimum","input":["PartitionedCall/transpose_181","PartitionedCall/clip_by_value_37/Minimum/y"],"attr":{"T":{"type":"DT_FLOAT"}}},
          {"name":"PartitionedCall/transpose_195","op":"Transpose","input":["PartitionedCall/clip_by_value_40","PartitionedCall/transpose_195/perm"],"attr":{"Tperm":{"type":"DT_INT32"},"T":{"type":"DT_FLOAT"}}},
          {"name":"PartitionedCall/depthwise_17","op":"DepthwiseConv2dNative","input":["PartitionedCall/transpose_168","PartitionedCall/Reshape_17"],"attr":{"strides":{"list":{"i":["1","1","1","1"]}},"explicit_paddings":{"list":{}},"dilations":{"list":{"i":["1","1","1","1"]}},"padding":{"s":"VkFMSUQ="},"data_format":{"s":"TkhXQw=="},"T":{"type":"DT_FLOAT"}}},
          {"name":"PartitionedCall/clip_by_value_37","op":"Maximum","input":["PartitionedCall/clip_by_value_37/Minimum","PartitionedCall/clip_by_value_37/y"],"attr":{"T":{"type":"DT_FLOAT"}}},
          {"name":"PartitionedCall/convolution_41","op":"Conv2D","input":["PartitionedCall/transpose_195","PartitionedCall/split_41"],"device":"/device:CPU:0","attr":{"explicit_paddings":{"list":{}},"dilations":{"list":{"i":["1","1","1","1"]}},"data_format":{"s":"TkhXQw=="},"T":{"type":"DT_FLOAT"},"padding":{"s":"VkFMSUQ="},"strides":{"list":{"i":["1","1","1","1"]}},"use_cudnn_on_gpu":{"b":true}}},
          {"name":"PartitionedCall/Add_53","op":"AddV2","input":["PartitionedCall/depthwise_17","unknown_108"],"attr":{"T":{"type":"DT_FLOAT"}}},
          {"name":"PartitionedCall/Pad_20","op":"Pad","input":["PartitionedCall/clip_by_value_37","PartitionedCall/Const_99"],"attr":{"T":{"type":"DT_FLOAT"},"Tpaddings":{"type":"DT_INT32"}}},
          {"name":"PartitionedCall/Add_66","op":"AddV2","input":["PartitionedCall/convolution_41","unknown_128"],"attr":{"T":{"type":"DT_FLOAT"}}},
          {"name":"PartitionedCall/transpose_169","op":"Transpose","input":["PartitionedCall/Add_53","PartitionedCall/transpose_169/perm"],"attr":{"Tperm":{"type":"DT_INT32"},"T":{"type":"DT_FLOAT"}}},
          {"name":"PartitionedCall/transpose_183","op":"Transpose","input":["PartitionedCall/Pad_20","PartitionedCall/transpose_183/perm"],"attr":{"Tperm":{"type":"DT_INT32"},"T":{"type":"DT_FLOAT"}}},
          {"name":"PartitionedCall/transpose_196","op":"Transpose","input":["PartitionedCall/Add_66","PartitionedCall/transpose_196/perm"],"attr":{"Tperm":{"type":"DT_INT32"},"T":{"type":"DT_FLOAT"}}},
          {"name":"PartitionedCall/clip_by_value_34/Minimum","op":"Minimum","input":["PartitionedCall/transpose_169","PartitionedCall/clip_by_value_34/Minimum/y"],"attr":{"T":{"type":"DT_FLOAT"}}},
          {"name":"PartitionedCall/depthwise_19","op":"DepthwiseConv2dNative","input":["PartitionedCall/transpose_183","PartitionedCall/Reshape_19"],"attr":{"padding":{"s":"VkFMSUQ="},"dilations":{"list":{"i":["1","1","1","1"]}},"explicit_paddings":{"list":{}},"strides":{"list":{"i":["1","1","1","1"]}},"data_format":{"s":"TkhXQw=="},"T":{"type":"DT_FLOAT"}}},
          {"name":"PartitionedCall/clip_by_value_41/Minimum","op":"Minimum","input":["PartitionedCall/transpose_196","PartitionedCall/clip_by_value_41/Minimum/y"],"attr":{"T":{"type":"DT_FLOAT"}}},
          {"name":"PartitionedCall/clip_by_value_34","op":"Maximum","input":["PartitionedCall/clip_by_value_34/Minimum","PartitionedCall/clip_by_value_34/y"],"attr":{"T":{"type":"DT_FLOAT"}}},
          {"name":"PartitionedCall/Add_60","op":"AddV2","input":["PartitionedCall/depthwise_19","unknown_120"],"attr":{"T":{"type":"DT_FLOAT"}}},
          {"name":"PartitionedCall/clip_by_value_41","op":"Maximum","input":["PartitionedCall/clip_by_value_41/Minimum","PartitionedCall/clip_by_value_41/y"],"attr":{"T":{"type":"DT_FLOAT"}}},
          {"name":"PartitionedCall/transpose_171","op":"Transpose","input":["PartitionedCall/clip_by_value_34","PartitionedCall/transpose_171/perm"],"attr":{"Tperm":{"type":"DT_INT32"},"T":{"type":"DT_FLOAT"}}},
          {"name":"PartitionedCall/transpose_184","op":"Transpose","input":["PartitionedCall/Add_60","PartitionedCall/transpose_184/perm"],"attr":{"Tperm":{"type":"DT_INT32"},"T":{"type":"DT_FLOAT"}}},
          {"name":"PartitionedCall/Pad_22","op":"Pad","input":["PartitionedCall/clip_by_value_41","PartitionedCall/Const_112"],"attr":{"T":{"type":"DT_FLOAT"},"Tpaddings":{"type":"DT_INT32"}}},
          {"name":"PartitionedCall/convolution_36","op":"Conv2D","input":["PartitionedCall/transpose_171","PartitionedCall/split_36"],"device":"/device:CPU:0","attr":{"T":{"type":"DT_FLOAT"},"dilations":{"list":{"i":["1","1","1","1"]}},"padding":{"s":"VkFMSUQ="},"explicit_paddings":{"list":{}},"strides":{"list":{"i":["1","1","1","1"]}},"data_format":{"s":"TkhXQw=="},"use_cudnn_on_gpu":{"b":true}}},
          {"name":"PartitionedCall/clip_by_value_38/Minimum","op":"Minimum","input":["PartitionedCall/transpose_184","PartitionedCall/clip_by_value_38/Minimum/y"],"attr":{"T":{"type":"DT_FLOAT"}}},
          {"name":"PartitionedCall/transpose_198","op":"Transpose","input":["PartitionedCall/Pad_22","PartitionedCall/transpose_198/perm"],"attr":{"Tperm":{"type":"DT_INT32"},"T":{"type":"DT_FLOAT"}}},
          {"name":"PartitionedCall/Add_54","op":"AddV2","input":["PartitionedCall/convolution_36","unknown_110"],"attr":{"T":{"type":"DT_FLOAT"}}},
          {"name":"PartitionedCall/clip_by_value_38","op":"Maximum","input":["PartitionedCall/clip_by_value_38/Minimum","PartitionedCall/clip_by_value_38/y"],"attr":{"T":{"type":"DT_FLOAT"}}},
          {"name":"PartitionedCall/depthwise_21","op":"DepthwiseConv2dNative","input":["PartitionedCall/transpose_198","PartitionedCall/Reshape_21"],"attr":{"explicit_paddings":{"list":{}},"T":{"type":"DT_FLOAT"},"dilations":{"list":{"i":["1","1","1","1"]}},"strides":{"list":{"i":["1","1","1","1"]}},"data_format":{"s":"TkhXQw=="},"padding":{"s":"VkFMSUQ="}}},
          {"name":"PartitionedCall/transpose_172","op":"Transpose","input":["PartitionedCall/Add_54","PartitionedCall/transpose_172/perm"],"attr":{"Tperm":{"type":"DT_INT32"},"T":{"type":"DT_FLOAT"}}},
          {"name":"PartitionedCall/transpose_186","op":"Transpose","input":["PartitionedCall/clip_by_value_38","PartitionedCall/transpose_186/perm"],"attr":{"T":{"type":"DT_FLOAT"},"Tperm":{"type":"DT_INT32"}}},
          {"name":"PartitionedCall/Add_67","op":"AddV2","input":["PartitionedCall/depthwise_21","unknown_130"],"attr":{"T":{"type":"DT_FLOAT"}}},
          {"name":"PartitionedCall/clip_by_value_35/Minimum","op":"Minimum","input":["PartitionedCall/transpose_172","PartitionedCall/clip_by_value_35/Minimum/y"],"attr":{"T":{"type":"DT_FLOAT"}}},
          {"name":"PartitionedCall/convolution_39","op":"Conv2D","input":["PartitionedCall/transpose_186","PartitionedCall/split_39"],"device":"/device:CPU:0","attr":{"data_format":{"s":"TkhXQw=="},"padding":{"s":"VkFMSUQ="},"dilations":{"list":{"i":["1","1","1","1"]}},"strides":{"list":{"i":["1","1","1","1"]}},"explicit_paddings":{"list":{}},"T":{"type":"DT_FLOAT"},"use_cudnn_on_gpu":{"b":true}}},
          {"name":"PartitionedCall/transpose_199","op":"Transpose","input":["PartitionedCall/Add_67","PartitionedCall/transpose_199/perm"],"attr":{"T":{"type":"DT_FLOAT"},"Tperm":{"type":"DT_INT32"}}},
          {"name":"PartitionedCall/clip_by_value_35","op":"Maximum","input":["PartitionedCall/clip_by_value_35/Minimum","PartitionedCall/clip_by_value_35/y"],"attr":{"T":{"type":"DT_FLOAT"}}},
          {"name":"PartitionedCall/Add_61","op":"AddV2","input":["PartitionedCall/convolution_39","unknown_122"],"attr":{"T":{"type":"DT_FLOAT"}}},
          {"name":"PartitionedCall/clip_by_value_42/Minimum","op":"Minimum","input":["PartitionedCall/transpose_199","PartitionedCall/clip_by_value_42/Minimum/y"],"attr":{"T":{"type":"DT_FLOAT"}}},
          {"name":"PartitionedCall/transpose_174","op":"Transpose","input":["PartitionedCall/clip_by_value_35","PartitionedCall/transpose_174/perm"],"attr":{"Tperm":{"type":"DT_INT32"},"T":{"type":"DT_FLOAT"}}},
          {"name":"PartitionedCall/transpose_187","op":"Transpose","input":["PartitionedCall/Add_61","PartitionedCall/transpose_187/perm"],"attr":{"T":{"type":"DT_FLOAT"},"Tperm":{"type":"DT_INT32"}}},
          {"name":"PartitionedCall/clip_by_value_42","op":"Maximum","input":["PartitionedCall/clip_by_value_42/Minimum","PartitionedCall/clip_by_value_42/y"],"attr":{"T":{"type":"DT_FLOAT"}}},
          {"name":"PartitionedCall/convolution_37","op":"Conv2D","input":["PartitionedCall/transpose_174","PartitionedCall/split_37"],"device":"/device:CPU:0","attr":{"explicit_paddings":{"list":{}},"padding":{"s":"VkFMSUQ="},"use_cudnn_on_gpu":{"b":true},"data_format":{"s":"TkhXQw=="},"T":{"type":"DT_FLOAT"},"strides":{"list":{"i":["1","1","1","1"]}},"dilations":{"list":{"i":["1","1","1","1"]}}}},
          {"name":"PartitionedCall/clip_by_value_39/Minimum","op":"Minimum","input":["PartitionedCall/transpose_187","PartitionedCall/clip_by_value_39/Minimum/y"],"attr":{"T":{"type":"DT_FLOAT"}}},
          {"name":"PartitionedCall/transpose_201","op":"Transpose","input":["PartitionedCall/clip_by_value_42","PartitionedCall/transpose_201/perm"],"attr":{"Tperm":{"type":"DT_INT32"},"T":{"type":"DT_FLOAT"}}},
          {"name":"PartitionedCall/Add_55","op":"AddV2","input":["PartitionedCall/convolution_37","unknown_112"],"attr":{"T":{"type":"DT_FLOAT"}}},
          {"name":"PartitionedCall/clip_by_value_39","op":"Maximum","input":["PartitionedCall/clip_by_value_39/Minimum","PartitionedCall/clip_by_value_39/y"],"attr":{"T":{"type":"DT_FLOAT"}}},
          {"name":"PartitionedCall/convolution_42","op":"Conv2D","input":["PartitionedCall/transpose_201","PartitionedCall/split_42"],"device":"/device:CPU:0","attr":{"dilations":{"list":{"i":["1","1","1","1"]}},"data_format":{"s":"TkhXQw=="},"T":{"type":"DT_FLOAT"},"strides":{"list":{"i":["1","1","1","1"]}},"explicit_paddings":{"list":{}},"padding":{"s":"VkFMSUQ="},"use_cudnn_on_gpu":{"b":true}}},
          {"name":"PartitionedCall/transpose_175","op":"Transpose","input":["PartitionedCall/Add_55","PartitionedCall/transpose_175/perm"],"attr":{"Tperm":{"type":"DT_INT32"},"T":{"type":"DT_FLOAT"}}},
          {"name":"PartitionedCall/transpose_189","op":"Transpose","input":["PartitionedCall/clip_by_value_39","PartitionedCall/transpose_189/perm"],"attr":{"Tperm":{"type":"DT_INT32"},"T":{"type":"DT_FLOAT"}}},
          {"name":"PartitionedCall/Add_68","op":"AddV2","input":["PartitionedCall/convolution_42","unknown_132"],"attr":{"T":{"type":"DT_FLOAT"}}},
          {"name":"PartitionedCall/onnx_tf_prefix_Split_109","op":"SplitV","input":["PartitionedCall/transpose_175","PartitionedCall/Const_91","PartitionedCall/onnx_tf_prefix_Split_109/split_dim"],"attr":{"num_split":{"i":"2"},"Tlen":{"type":"DT_INT32"},"T":{"type":"DT_FLOAT"}}},
          {"name":"PartitionedCall/convolution_40","op":"Conv2D","input":["PartitionedCall/transpose_189","PartitionedCall/split_40"],"device":"/device:CPU:0","attr":{"dilations":{"list":{"i":["1","1","1","1"]}},"strides":{"list":{"i":["1","1","1","1"]}},"use_cudnn_on_gpu":{"b":true},"explicit_paddings":{"list":{}},"padding":{"s":"VkFMSUQ="},"T":{"type":"DT_FLOAT"},"data_format":{"s":"TkhXQw=="}}},
          {"name":"PartitionedCall/transpose_202","op":"Transpose","input":["PartitionedCall/Add_68","PartitionedCall/transpose_202/perm"],"attr":{"Tperm":{"type":"DT_INT32"},"T":{"type":"DT_FLOAT"}}},
          {"name":"PartitionedCall/onnx_tf_prefix_Sigmoid_110","op":"Sigmoid","input":["PartitionedCall/onnx_tf_prefix_Split_109"],"attr":{"T":{"type":"DT_FLOAT"}}},
          {"name":"PartitionedCall/onnx_tf_prefix_Reshape_115","op":"Reshape","input":["PartitionedCall/onnx_tf_prefix_Split_109:1","PartitionedCall/add_57"],"attr":{"T":{"type":"DT_FLOAT"},"Tshape":{"type":"DT_INT64"}}},
          {"name":"PartitionedCall/Add_62","op":"AddV2","input":["PartitionedCall/convolution_40","unknown_124"],"attr":{"T":{"type":"DT_FLOAT"}}},
          {"name":"PartitionedCall/clip_by_value_43/Minimum","op":"Minimum","input":["PartitionedCall/transpose_202","PartitionedCall/clip_by_value_43/Minimum/y"],"attr":{"T":{"type":"DT_FLOAT"}}},
          {"name":"PartitionedCall/onnx_tf_prefix_Reshape_112","op":"Reshape","input":["PartitionedCall/onnx_tf_prefix_Sigmoid_110","PartitionedCall/add_56"],"attr":{"T":{"type":"DT_FLOAT"},"Tshape":{"type":"DT_INT64"}}},
          {"name":"PartitionedCall/onnx_tf_prefix_Transpose_116","op":"Transpose","input":["PartitionedCall/onnx_tf_prefix_Reshape_115","PartitionedCall/onnx_tf_prefix_Transpose_116/perm"],"attr":{"Tperm":{"type":"DT_INT32"},"T":{"type":"DT_FLOAT"}}},
          {"name":"PartitionedCall/transpose_190","op":"Transpose","input":["PartitionedCall/Add_62","PartitionedCall/transpose_190/perm"],"attr":{"Tperm":{"type":"DT_INT32"},"T":{"type":"DT_FLOAT"}}},
          {"name":"PartitionedCall/clip_by_value_43","op":"Maximum","input":["PartitionedCall/clip_by_value_43/Minimum","PartitionedCall/clip_by_value_43/y"],"attr":{"T":{"type":"DT_FLOAT"}}},
          {"name":"PartitionedCall/onnx_tf_prefix_Transpose_113","op":"Transpose","input":["PartitionedCall/onnx_tf_prefix_Reshape_112","PartitionedCall/onnx_tf_prefix_Transpose_113/perm"],"attr":{"T":{"type":"DT_FLOAT"},"Tperm":{"type":"DT_INT32"}}},
          {"name":"Identity_5","op":"Identity","input":["PartitionedCall/onnx_tf_prefix_Transpose_116"],"attr":{"T":{"type":"DT_FLOAT"}}},
          {"name":"PartitionedCall/onnx_tf_prefix_Split_126","op":"SplitV","input":["PartitionedCall/transpose_190","PartitionedCall/Const_104","PartitionedCall/onnx_tf_prefix_Split_126/split_dim"],"attr":{"Tlen":{"type":"DT_INT32"},"num_split":{"i":"2"},"T":{"type":"DT_FLOAT"}}},
          {"name":"PartitionedCall/transpose_204","op":"Transpose","input":["PartitionedCall/clip_by_value_43","PartitionedCall/transpose_204/perm"],"attr":{"Tperm":{"type":"DT_INT32"},"T":{"type":"DT_FLOAT"}}},
          {"name":"Identity_2","op":"Identity","input":["PartitionedCall/onnx_tf_prefix_Transpose_113"],"attr":{"T":{"type":"DT_FLOAT"}}},
          {"name":"PartitionedCall/onnx_tf_prefix_Sigmoid_127","op":"Sigmoid","input":["PartitionedCall/onnx_tf_prefix_Split_126"],"attr":{"T":{"type":"DT_FLOAT"}}},
          {"name":"PartitionedCall/onnx_tf_prefix_Reshape_132","op":"Reshape","input":["PartitionedCall/onnx_tf_prefix_Split_126:1","PartitionedCall/add_64"],"attr":{"Tshape":{"type":"DT_INT64"},"T":{"type":"DT_FLOAT"}}},
          {"name":"PartitionedCall/convolution_43","op":"Conv2D","input":["PartitionedCall/transpose_204","PartitionedCall/split_43"],"device":"/device:CPU:0","attr":{"padding":{"s":"VkFMSUQ="},"T":{"type":"DT_FLOAT"},"explicit_paddings":{"list":{}},"data_format":{"s":"TkhXQw=="},"use_cudnn_on_gpu":{"b":true},"dilations":{"list":{"i":["1","1","1","1"]}},"strides":{"list":{"i":["1","1","1","1"]}}}},
          {"name":"PartitionedCall/onnx_tf_prefix_Reshape_129","op":"Reshape","input":["PartitionedCall/onnx_tf_prefix_Sigmoid_127","PartitionedCall/add_63"],"attr":{"T":{"type":"DT_FLOAT"},"Tshape":{"type":"DT_INT64"}}},
          {"name":"PartitionedCall/onnx_tf_prefix_Transpose_133","op":"Transpose","input":["PartitionedCall/onnx_tf_prefix_Reshape_132","PartitionedCall/onnx_tf_prefix_Transpose_133/perm"],"attr":{"Tperm":{"type":"DT_INT32"},"T":{"type":"DT_FLOAT"}}},
          {"name":"PartitionedCall/Add_69","op":"AddV2","input":["PartitionedCall/convolution_43","unknown_134"],"attr":{"T":{"type":"DT_FLOAT"}}},
          {"name":"PartitionedCall/onnx_tf_prefix_Transpose_130","op":"Transpose","input":["PartitionedCall/onnx_tf_prefix_Reshape_129","PartitionedCall/onnx_tf_prefix_Transpose_130/perm"],"attr":{"Tperm":{"type":"DT_INT32"},"T":{"type":"DT_FLOAT"}}},
          {"name":"Identity_3","op":"Identity","input":["PartitionedCall/onnx_tf_prefix_Transpose_133"],"attr":{"T":{"type":"DT_FLOAT"}}},
          {"name":"PartitionedCall/transpose_205","op":"Transpose","input":["PartitionedCall/Add_69","PartitionedCall/transpose_205/perm"],"attr":{"Tperm":{"type":"DT_INT32"},"T":{"type":"DT_FLOAT"}}},
          {"name":"Identity","op":"Identity","input":["PartitionedCall/onnx_tf_prefix_Transpose_130"],"attr":{"T":{"type":"DT_FLOAT"}}},
          {"name":"PartitionedCall/onnx_tf_prefix_Split_143","op":"SplitV","input":["PartitionedCall/transpose_205","PartitionedCall/Const_117","PartitionedCall/onnx_tf_prefix_Split_143/split_dim"],"attr":{"Tlen":{"type":"DT_INT32"},"num_split":{"i":"2"},"T":{"type":"DT_FLOAT"}}},
          {"name":"PartitionedCall/onnx_tf_prefix_Sigmoid_144","op":"Sigmoid","input":["PartitionedCall/onnx_tf_prefix_Split_143"],"attr":{"T":{"type":"DT_FLOAT"}}},
          {"name":"PartitionedCall/onnx_tf_prefix_Reshape_149","op":"Reshape","input":["PartitionedCall/onnx_tf_prefix_Split_143:1","PartitionedCall/add_71"],"attr":{"Tshape":{"type":"DT_INT64"},"T":{"type":"DT_FLOAT"}}},
          {"name":"PartitionedCall/onnx_tf_prefix_Reshape_146","op":"Reshape","input":["PartitionedCall/onnx_tf_prefix_Sigmoid_144","PartitionedCall/add_70"],"attr":{"T":{"type":"DT_FLOAT"},"Tshape":{"type":"DT_INT64"}}},
          {"name":"PartitionedCall/onnx_tf_prefix_Transpose_150","op":"Transpose","input":["PartitionedCall/onnx_tf_prefix_Reshape_149","PartitionedCall/onnx_tf_prefix_Transpose_150/perm"],"attr":{"T":{"type":"DT_FLOAT"},"Tperm":{"type":"DT_INT32"}}},
          {"name":"PartitionedCall/onnx_tf_prefix_Transpose_147","op":"Transpose","input":["PartitionedCall/onnx_tf_prefix_Reshape_146","PartitionedCall/onnx_tf_prefix_Transpose_147/perm"],"attr":{"T":{"type":"DT_FLOAT"},"Tperm":{"type":"DT_INT32"}}},
          {"name":"Identity_4","op":"Identity","input":["PartitionedCall/onnx_tf_prefix_Transpose_150"],"attr":{"T":{"type":"DT_FLOAT"}}},
          {"name":"Identity_1","op":"Identity","input":["PartitionedCall/onnx_tf_prefix_Transpose_147"],"attr":{"T":{"type":"DT_FLOAT"}}}
      ],
      "library": {},
      "versions":
      {
          "producer": 808
      }
  },
  "weightsManifest":
  [
      {
          "paths": ["nanodet-e.bin"],
          "weights": [{"name":"PartitionedCall/Where_2","shape":[0,1],"dtype":"int32"},{"name":"PartitionedCall/Cast_10","shape":[1],"dtype":"int32"},{"name":"PartitionedCall/GatherV2_2","shape":[0],"dtype":"int32"},{"name":"PartitionedCall/zeros_2","shape":[],"dtype":"int32"},{"name":"PartitionedCall/onnx_tf_prefix_Transpose_130/perm","shape":[3],"dtype":"int32"},{"name":"PartitionedCall/Where_4","shape":[0,1],"dtype":"int32"},{"name":"PartitionedCall/Cast_12","shape":[1],"dtype":"int32"},{"name":"PartitionedCall/GatherV2_4","shape":[0],"dtype":"int32"},{"name":"PartitionedCall/zeros_4","shape":[],"dtype":"int32"},{"name":"PartitionedCall/onnx_tf_prefix_Transpose_147/perm","shape":[3],"dtype":"int32"},{"name":"unknown_113","shape":[3],"dtype":"int32"},{"name":"PartitionedCall/Where","shape":[0,1],"dtype":"int32"},{"name":"PartitionedCall/Cast_8","shape":[1],"dtype":"int32"},{"name":"PartitionedCall/GatherV2","shape":[0],"dtype":"int32"},{"name":"PartitionedCall/zeros","shape":[],"dtype":"int32"},{"name":"PartitionedCall/onnx_tf_prefix_Transpose_113/perm","shape":[3],"dtype":"int32"},{"name":"PartitionedCall/Const_94","shape":[4,2],"dtype":"int32"},{"name":"PartitionedCall/transpose_177/perm","shape":[4],"dtype":"int32"},{"name":"PartitionedCall/Reshape_18","shape":[3,3,96,1],"dtype":"float32"},{"name":"unknown_116","shape":[96],"dtype":"float32"},{"name":"PartitionedCall/transpose_178/perm","shape":[4],"dtype":"int32"},{"name":"PartitionedCall/clip_by_value_36/Minimum/y","shape":[],"dtype":"float32"},{"name":"PartitionedCall/clip_by_value_36/y","shape":[],"dtype":"float32"},{"name":"PartitionedCall/transpose_180/perm","shape":[4],"dtype":"int32"},{"name":"PartitionedCall/split_38","shape":[1,1,96,96],"dtype":"float32"},{"name":"unknown_118","shape":[96],"dtype":"float32"},{"name":"PartitionedCall/transpose_181/perm","shape":[4],"dtype":"int32"},{"name":"PartitionedCall/clip_by_value_37/Minimum/y","shape":[],"dtype":"float32"},{"name":"PartitionedCall/clip_by_value_37/y","shape":[],"dtype":"float32"},{"name":"PartitionedCall/Const_99","shape":[4,2],"dtype":"int32"},{"name":"PartitionedCall/transpose_183/perm","shape":[4],"dtype":"int32"},{"name":"PartitionedCall/Reshape_19","shape":[3,3,96,1],"dtype":"float32"},{"name":"unknown_120","shape":[96],"dtype":"float32"},{"name":"PartitionedCall/transpose_184/perm","shape":[4],"dtype":"int32"},{"name":"PartitionedCall/clip_by_value_38/Minimum/y","shape":[],"dtype":"float32"},{"name":"PartitionedCall/clip_by_value_38/y","shape":[],"dtype":"float32"},{"name":"PartitionedCall/transpose_186/perm","shape":[4],"dtype":"int32"},{"name":"PartitionedCall/split_39","shape":[1,1,96,96],"dtype":"float32"},{"name":"unknown_122","shape":[96],"dtype":"float32"},{"name":"PartitionedCall/transpose_187/perm","shape":[4],"dtype":"int32"},{"name":"PartitionedCall/clip_by_value_39/Minimum/y","shape":[],"dtype":"float32"},{"name":"PartitionedCall/clip_by_value_39/y","shape":[],"dtype":"float32"},{"name":"PartitionedCall/transpose_189/perm","shape":[4],"dtype":"int32"},{"name":"PartitionedCall/split_40","shape":[1,1,96,112],"dtype":"float32"},{"name":"unknown_124","shape":[112],"dtype":"float32"},{"name":"PartitionedCall/transpose_190/perm","shape":[4],"dtype":"int32"},{"name":"PartitionedCall/Const_104","shape":[2],"dtype":"int32"},{"name":"PartitionedCall/onnx_tf_prefix_Split_126/split_dim","shape":[],"dtype":"int32"},{"name":"PartitionedCall/Where_3","shape":[0,1],"dtype":"int32"},{"name":"PartitionedCall/Cast_11","shape":[1],"dtype":"int32"},{"name":"PartitionedCall/GatherV2_3","shape":[0],"dtype":"int32"},{"name":"PartitionedCall/zeros_3","shape":[],"dtype":"int32"},{"name":"PartitionedCall/onnx_tf_prefix_Transpose_133/perm","shape":[3],"dtype":"int32"},{"name":"PartitionedCall/transpose_152/perm","shape":[4],"dtype":"int32"},{"name":"PartitionedCall/transpose_157/perm","shape":[4],"dtype":"int32"},{"name":"PartitionedCall/Cast_5","shape":[2],"dtype":"int32"},{"name":"PartitionedCall/transpose_158/perm","shape":[4],"dtype":"int32"},{"name":"PartitionedCall/transpose_159/perm","shape":[4],"dtype":"int32"},{"name":"PartitionedCall/Cast_7","shape":[2],"dtype":"int32"},{"name":"PartitionedCall/transpose_160/perm","shape":[4],"dtype":"int32"},{"name":"PartitionedCall/Const_107","shape":[4,2],"dtype":"int32"},{"name":"PartitionedCall/transpose_192/perm","shape":[4],"dtype":"int32"},{"name":"PartitionedCall/Reshape_20","shape":[3,3,96,1],"dtype":"float32"},{"name":"unknown_126","shape":[96],"dtype":"float32"},{"name":"PartitionedCall/transpose_193/perm","shape":[4],"dtype":"int32"},{"name":"PartitionedCall/clip_by_value_40/Minimum/y","shape":[],"dtype":"float32"},{"name":"PartitionedCall/clip_by_value_40/y","shape":[],"dtype":"float32"},{"name":"PartitionedCall/transpose_195/perm","shape":[4],"dtype":"int32"},{"name":"PartitionedCall/split_41","shape":[1,1,96,96],"dtype":"float32"},{"name":"unknown_128","shape":[96],"dtype":"float32"},{"name":"PartitionedCall/transpose_196/perm","shape":[4],"dtype":"int32"},{"name":"PartitionedCall/clip_by_value_41/Minimum/y","shape":[],"dtype":"float32"},{"name":"PartitionedCall/clip_by_value_41/y","shape":[],"dtype":"float32"},{"name":"PartitionedCall/Const_112","shape":[4,2],"dtype":"int32"},{"name":"PartitionedCall/transpose_198/perm","shape":[4],"dtype":"int32"},{"name":"PartitionedCall/Reshape_21","shape":[3,3,96,1],"dtype":"float32"},{"name":"unknown_130","shape":[96],"dtype":"float32"},{"name":"PartitionedCall/transpose_199/perm","shape":[4],"dtype":"int32"},{"name":"PartitionedCall/clip_by_value_42/Minimum/y","shape":[],"dtype":"float32"},{"name":"PartitionedCall/clip_by_value_42/y","shape":[],"dtype":"float32"},{"name":"PartitionedCall/transpose_201/perm","shape":[4],"dtype":"int32"},{"name":"PartitionedCall/split_42","shape":[1,1,96,96],"dtype":"float32"},{"name":"unknown_132","shape":[96],"dtype":"float32"},{"name":"PartitionedCall/transpose_202/perm","shape":[4],"dtype":"int32"},{"name":"PartitionedCall/clip_by_value_43/Minimum/y","shape":[],"dtype":"float32"},{"name":"PartitionedCall/clip_by_value_43/y","shape":[],"dtype":"float32"},{"name":"PartitionedCall/transpose_204/perm","shape":[4],"dtype":"int32"},{"name":"PartitionedCall/split_43","shape":[1,1,96,112],"dtype":"float32"},{"name":"unknown_134","shape":[112],"dtype":"float32"},{"name":"PartitionedCall/transpose_205/perm","shape":[4],"dtype":"int32"},{"name":"PartitionedCall/Const_117","shape":[2],"dtype":"int32"},{"name":"PartitionedCall/onnx_tf_prefix_Split_143/split_dim","shape":[],"dtype":"int32"},{"name":"PartitionedCall/Where_5","shape":[0,1],"dtype":"int32"},{"name":"PartitionedCall/Cast_13","shape":[1],"dtype":"int32"},{"name":"PartitionedCall/GatherV2_5","shape":[0],"dtype":"int32"},{"name":"PartitionedCall/zeros_5","shape":[],"dtype":"int32"},{"name":"PartitionedCall/onnx_tf_prefix_Transpose_150/perm","shape":[3],"dtype":"int32"},{"name":"PartitionedCall/transpose_145/perm","shape":[4],"dtype":"int32"},{"name":"PartitionedCall/split_32","shape":[1,1,40,96],"dtype":"float32"},{"name":"unknown_96","shape":[96],"dtype":"float32"},{"name":"PartitionedCall/transpose_146/perm","shape":[4],"dtype":"int32"},{"name":"PartitionedCall/transpose_148/perm","shape":[4],"dtype":"int32"},{"name":"PartitionedCall/split_33","shape":[1,1,112,96],"dtype":"float32"},{"name":"unknown_98","shape":[96],"dtype":"float32"},{"name":"PartitionedCall/transpose_149/perm","shape":[4],"dtype":"int32"},{"name":"PartitionedCall/transpose_127/perm","shape":[4],"dtype":"int32"},{"name":"PartitionedCall/split_28","shape":[1,1,192,1152],"dtype":"float32"},{"name":"unknown_84","shape":[1152],"dtype":"float32"},{"name":"PartitionedCall/transpose_128/perm","shape":[4],"dtype":"int32"},{"name":"PartitionedCall/clip_by_value_28/Minimum/y","shape":[],"dtype":"float32"},{"name":"PartitionedCall/clip_by_value_28/y","shape":[],"dtype":"float32"},{"name":"PartitionedCall/Const_73","shape":[4,2],"dtype":"int32"},{"name":"PartitionedCall/transpose_130/perm","shape":[4],"dtype":"int32"},{"name":"PartitionedCall/Reshape_14","shape":[5,5,1152,1],"dtype":"float32"},{"name":"unknown_86","shape":[1152],"dtype":"float32"},{"name":"PartitionedCall/transpose_131/perm","shape":[4],"dtype":"int32"},{"name":"PartitionedCall/clip_by_value_29/Minimum/y","shape":[],"dtype":"float32"},{"name":"PartitionedCall/clip_by_value_29/y","shape":[],"dtype":"float32"},{"name":"PartitionedCall/transpose_133/perm","shape":[4],"dtype":"int32"},{"name":"PartitionedCall/split_29","shape":[1,1,1152,192],"dtype":"float32"},{"name":"unknown_88","shape":[192],"dtype":"float32"},{"name":"PartitionedCall/transpose_134/perm","shape":[4],"dtype":"int32"},{"name":"PartitionedCall/transpose_118/perm","shape":[4],"dtype":"int32"},{"name":"PartitionedCall/split_26","shape":[1,1,192,1152],"dtype":"float32"},{"name":"unknown_78","shape":[1152],"dtype":"float32"},{"name":"PartitionedCall/transpose_119/perm","shape":[4],"dtype":"int32"},{"name":"PartitionedCall/clip_by_value_26/Minimum/y","shape":[],"dtype":"float32"},{"name":"PartitionedCall/clip_by_value_26/y","shape":[],"dtype":"float32"},{"name":"PartitionedCall/Const_68","shape":[4,2],"dtype":"int32"},{"name":"PartitionedCall/transpose_121/perm","shape":[4],"dtype":"int32"},{"name":"PartitionedCall/Reshape_13","shape":[5,5,1152,1],"dtype":"float32"},{"name":"unknown_80","shape":[1152],"dtype":"float32"},{"name":"PartitionedCall/transpose_122/perm","shape":[4],"dtype":"int32"},{"name":"PartitionedCall/clip_by_value_27/Minimum/y","shape":[],"dtype":"float32"},{"name":"PartitionedCall/clip_by_value_27/y","shape":[],"dtype":"float32"},{"name":"PartitionedCall/transpose_124/perm","shape":[4],"dtype":"int32"},{"name":"PartitionedCall/split_27","shape":[1,1,1152,192],"dtype":"float32"},{"name":"unknown_82","shape":[192],"dtype":"float32"},{"name":"PartitionedCall/transpose_125/perm","shape":[4],"dtype":"int32"},{"name":"PartitionedCall/split_24","shape":[1,1,192,1152],"dtype":"float32"},{"name":"unknown_72","shape":[1152],"dtype":"float32"},{"name":"PartitionedCall/transpose_110/perm","shape":[4],"dtype":"int32"},{"name":"PartitionedCall/clip_by_value_24/Minimum/y","shape":[],"dtype":"float32"},{"name":"PartitionedCall/clip_by_value_24/y","shape":[],"dtype":"float32"},{"name":"PartitionedCall/Const_63","shape":[4,2],"dtype":"int32"},{"name":"PartitionedCall/transpose_112/perm","shape":[4],"dtype":"int32"},{"name":"PartitionedCall/Reshape_12","shape":[5,5,1152,1],"dtype":"float32"},{"name":"unknown_74","shape":[1152],"dtype":"float32"},{"name":"PartitionedCall/transpose_113/perm","shape":[4],"dtype":"int32"},{"name":"PartitionedCall/clip_by_value_25/Minimum/y","shape":[],"dtype":"float32"},{"name":"PartitionedCall/clip_by_value_25/y","shape":[],"dtype":"float32"},{"name":"PartitionedCall/transpose_115/perm","shape":[4],"dtype":"int32"},{"name":"PartitionedCall/split_25","shape":[1,1,1152,192],"dtype":"float32"},{"name":"unknown_76","shape":[192],"dtype":"float32"},{"name":"PartitionedCall/transpose_116/perm","shape":[4],"dtype":"int32"},{"name":"PartitionedCall/transpose_91/perm","shape":[4],"dtype":"int32"},{"name":"PartitionedCall/split_20","shape":[1,1,112,672],"dtype":"float32"},{"name":"unknown_60","shape":[672],"dtype":"float32"},{"name":"PartitionedCall/transpose_92/perm","shape":[4],"dtype":"int32"},{"name":"PartitionedCall/clip_by_value_20/Minimum/y","shape":[],"dtype":"float32"},{"name":"PartitionedCall/clip_by_value_20/y","shape":[],"dtype":"float32"},{"name":"PartitionedCall/Const_53","shape":[4,2],"dtype":"int32"},{"name":"PartitionedCall/transpose_94/perm","shape":[4],"dtype":"int32"},{"name":"PartitionedCall/Reshape_10","shape":[5,5,672,1],"dtype":"float32"},{"name":"unknown_62","shape":[672],"dtype":"float32"},{"name":"PartitionedCall/transpose_95/perm","shape":[4],"dtype":"int32"},{"name":"PartitionedCall/clip_by_value_21/Minimum/y","shape":[],"dtype":"float32"},{"name":"PartitionedCall/clip_by_value_21/y","shape":[],"dtype":"float32"},{"name":"PartitionedCall/transpose_97/perm","shape":[4],"dtype":"int32"},{"name":"PartitionedCall/split_21","shape":[1,1,672,112],"dtype":"float32"},{"name":"unknown_64","shape":[112],"dtype":"float32"},{"name":"PartitionedCall/transpose_98/perm","shape":[4],"dtype":"int32"},{"name":"PartitionedCall/split_18","shape":[1,1,112,672],"dtype":"float32"},{"name":"unknown_54","shape":[672],"dtype":"float32"},{"name":"PartitionedCall/transpose_83/perm","shape":[4],"dtype":"int32"},{"name":"PartitionedCall/clip_by_value_18/Minimum/y","shape":[],"dtype":"float32"},{"name":"PartitionedCall/clip_by_value_18/y","shape":[],"dtype":"float32"},{"name":"PartitionedCall/Const_48","shape":[4,2],"dtype":"int32"},{"name":"PartitionedCall/transpose_85/perm","shape":[4],"dtype":"int32"},{"name":"PartitionedCall/Reshape_9","shape":[5,5,672,1],"dtype":"float32"},{"name":"unknown_56","shape":[672],"dtype":"float32"},{"name":"PartitionedCall/transpose_86/perm","shape":[4],"dtype":"int32"},{"name":"PartitionedCall/clip_by_value_19/Minimum/y","shape":[],"dtype":"float32"},{"name":"PartitionedCall/clip_by_value_19/y","shape":[],"dtype":"float32"},{"name":"PartitionedCall/transpose_88/perm","shape":[4],"dtype":"int32"},{"name":"PartitionedCall/split_19","shape":[1,1,672,112],"dtype":"float32"},{"name":"unknown_58","shape":[112],"dtype":"float32"},{"name":"PartitionedCall/transpose_89/perm","shape":[4],"dtype":"int32"},{"name":"PartitionedCall/transpose_64/perm","shape":[4],"dtype":"int32"},{"name":"PartitionedCall/split_14","shape":[1,1,80,480],"dtype":"float32"},{"name":"unknown_42","shape":[480],"dtype":"float32"},{"name":"PartitionedCall/transpose_65/perm","shape":[4],"dtype":"int32"},{"name":"PartitionedCall/clip_by_value_14/Minimum/y","shape":[],"dtype":"float32"},{"name":"PartitionedCall/clip_by_value_14/y","shape":[],"dtype":"float32"},{"name":"PartitionedCall/Const_38","shape":[4,2],"dtype":"int32"},{"name":"PartitionedCall/transpose_67/perm","shape":[4],"dtype":"int32"},{"name":"PartitionedCall/Reshape_7","shape":[3,3,480,1],"dtype":"float32"},{"name":"unknown_44","shape":[480],"dtype":"float32"},{"name":"PartitionedCall/transpose_68/perm","shape":[4],"dtype":"int32"},{"name":"PartitionedCall/clip_by_value_15/Minimum/y","shape":[],"dtype":"float32"},{"name":"PartitionedCall/clip_by_value_15/y","shape":[],"dtype":"float32"},{"name":"PartitionedCall/transpose_70/perm","shape":[4],"dtype":"int32"},{"name":"PartitionedCall/split_15","shape":[1,1,480,80],"dtype":"float32"},{"name":"unknown_46","shape":[80],"dtype":"float32"},{"name":"PartitionedCall/transpose_71/perm","shape":[4],"dtype":"int32"},{"name":"PartitionedCall/split_12","shape":[1,1,80,480],"dtype":"float32"},{"name":"unknown_36","shape":[480],"dtype":"float32"},{"name":"PartitionedCall/transpose_56/perm","shape":[4],"dtype":"int32"},{"name":"PartitionedCall/clip_by_value_12/Minimum/y","shape":[],"dtype":"float32"},{"name":"PartitionedCall/clip_by_value_12/y","shape":[],"dtype":"float32"},{"name":"PartitionedCall/Const_33","shape":[4,2],"dtype":"int32"},{"name":"PartitionedCall/transpose_58/perm","shape":[4],"dtype":"int32"},{"name":"PartitionedCall/Reshape_6","shape":[3,3,480,1],"dtype":"float32"},{"name":"unknown_38","shape":[480],"dtype":"float32"},{"name":"PartitionedCall/transpose_59/perm","shape":[4],"dtype":"int32"},{"name":"PartitionedCall/clip_by_value_13/Minimum/y","shape":[],"dtype":"float32"},{"name":"PartitionedCall/clip_by_value_13/y","shape":[],"dtype":"float32"},{"name":"PartitionedCall/transpose_61/perm","shape":[4],"dtype":"int32"},{"name":"PartitionedCall/split_13","shape":[1,1,480,80],"dtype":"float32"},{"name":"unknown_40","shape":[80],"dtype":"float32"},{"name":"PartitionedCall/transpose_62/perm","shape":[4],"dtype":"int32"},{"name":"PartitionedCall/split_8","shape":[1,1,40,240],"dtype":"float32"},{"name":"unknown_24","shape":[240],"dtype":"float32"},{"name":"PartitionedCall/transpose_38/perm","shape":[4],"dtype":"int32"},{"name":"PartitionedCall/clip_by_value_8/Minimum/y","shape":[],"dtype":"float32"},{"name":"PartitionedCall/clip_by_value_8/y","shape":[],"dtype":"float32"},{"name":"PartitionedCall/Const_23","shape":[4,2],"dtype":"int32"},{"name":"PartitionedCall/transpose_40/perm","shape":[4],"dtype":"int32"},{"name":"PartitionedCall/Reshape_4","shape":[5,5,240,1],"dtype":"float32"},{"name":"unknown_26","shape":[240],"dtype":"float32"},{"name":"PartitionedCall/transpose_41/perm","shape":[4],"dtype":"int32"},{"name":"PartitionedCall/clip_by_value_9/Minimum/y","shape":[],"dtype":"float32"},{"name":"PartitionedCall/clip_by_value_9/y","shape":[],"dtype":"float32"},{"name":"PartitionedCall/transpose_43/perm","shape":[4],"dtype":"int32"},{"name":"PartitionedCall/split_9","shape":[1,1,240,40],"dtype":"float32"},{"name":"unknown_28","shape":[40],"dtype":"float32"},{"name":"PartitionedCall/transpose_44/perm","shape":[4],"dtype":"int32"},{"name":"PartitionedCall/split_4","shape":[1,1,24,144],"dtype":"float32"},{"name":"unknown_12","shape":[144],"dtype":"float32"},{"name":"PartitionedCall/transpose_20/perm","shape":[4],"dtype":"int32"},{"name":"PartitionedCall/clip_by_value_4/Minimum/y","shape":[],"dtype":"float32"},{"name":"PartitionedCall/clip_by_value_4/y","shape":[],"dtype":"float32"},{"name":"PartitionedCall/Const_13","shape":[4,2],"dtype":"int32"},{"name":"PartitionedCall/transpose_22/perm","shape":[4],"dtype":"int32"},{"name":"PartitionedCall/Reshape_2","shape":[3,3,144,1],"dtype":"float32"},{"name":"unknown_14","shape":[144],"dtype":"float32"},{"name":"PartitionedCall/transpose_23/perm","shape":[4],"dtype":"int32"},{"name":"PartitionedCall/clip_by_value_5/Minimum/y","shape":[],"dtype":"float32"},{"name":"PartitionedCall/clip_by_value_5/y","shape":[],"dtype":"float32"},{"name":"PartitionedCall/transpose_25/perm","shape":[4],"dtype":"int32"},{"name":"PartitionedCall/split_5","shape":[1,1,144,24],"dtype":"float32"},{"name":"unknown_16","shape":[24],"dtype":"float32"},{"name":"PartitionedCall/transpose_26/perm","shape":[4],"dtype":"int32"},{"name":"PartitionedCall/Const","shape":[4,2],"dtype":"int32"},{"name":"PartitionedCall/transpose_1/perm","shape":[4],"dtype":"int32"},{"name":"PartitionedCall/split","shape":[3,3,3,32],"dtype":"float32"},{"name":"unknown_0","shape":[32],"dtype":"float32"},{"name":"PartitionedCall/transpose_2/perm","shape":[4],"dtype":"int32"},{"name":"PartitionedCall/clip_by_value/Minimum/y","shape":[],"dtype":"float32"},{"name":"PartitionedCall/clip_by_value/y","shape":[],"dtype":"float32"},{"name":"PartitionedCall/Const_3","shape":[4,2],"dtype":"int32"},{"name":"PartitionedCall/transpose_4/perm","shape":[4],"dtype":"int32"},{"name":"PartitionedCall/Reshape","shape":[3,3,32,1],"dtype":"float32"},{"name":"unknown_2","shape":[32],"dtype":"float32"},{"name":"PartitionedCall/transpose_5/perm","shape":[4],"dtype":"int32"},{"name":"PartitionedCall/clip_by_value_1/Minimum/y","shape":[],"dtype":"float32"},{"name":"PartitionedCall/clip_by_value_1/y","shape":[],"dtype":"float32"},{"name":"PartitionedCall/transpose_7/perm","shape":[4],"dtype":"int32"},{"name":"PartitionedCall/split_1","shape":[1,1,32,16],"dtype":"float32"},{"name":"unknown_4","shape":[16],"dtype":"float32"},{"name":"PartitionedCall/split_2","shape":[1,1,16,96],"dtype":"float32"},{"name":"unknown_6","shape":[96],"dtype":"float32"},{"name":"PartitionedCall/transpose_11/perm","shape":[4],"dtype":"int32"},{"name":"PartitionedCall/clip_by_value_2/Minimum/y","shape":[],"dtype":"float32"},{"name":"PartitionedCall/clip_by_value_2/y","shape":[],"dtype":"float32"},{"name":"PartitionedCall/Const_8","shape":[4,2],"dtype":"int32"},{"name":"PartitionedCall/transpose_13/perm","shape":[4],"dtype":"int32"},{"name":"PartitionedCall/Reshape_1","shape":[3,3,96,1],"dtype":"float32"},{"name":"unknown_8","shape":[96],"dtype":"float32"},{"name":"PartitionedCall/transpose_14/perm","shape":[4],"dtype":"int32"},{"name":"PartitionedCall/clip_by_value_3/Minimum/y","shape":[],"dtype":"float32"},{"name":"PartitionedCall/clip_by_value_3/y","shape":[],"dtype":"float32"},{"name":"PartitionedCall/transpose_16/perm","shape":[4],"dtype":"int32"},{"name":"PartitionedCall/split_3","shape":[1,1,96,24],"dtype":"float32"},{"name":"unknown_10","shape":[24],"dtype":"float32"},{"name":"PartitionedCall/transpose_17/perm","shape":[4],"dtype":"int32"},{"name":"PartitionedCall/transpose_28/perm","shape":[4],"dtype":"int32"},{"name":"PartitionedCall/split_6","shape":[1,1,24,144],"dtype":"float32"},{"name":"unknown_18","shape":[144],"dtype":"float32"},{"name":"PartitionedCall/transpose_29/perm","shape":[4],"dtype":"int32"},{"name":"PartitionedCall/clip_by_value_6/Minimum/y","shape":[],"dtype":"float32"},{"name":"PartitionedCall/clip_by_value_6/y","shape":[],"dtype":"float32"},{"name":"PartitionedCall/Const_18","shape":[4,2],"dtype":"int32"},{"name":"PartitionedCall/transpose_31/perm","shape":[4],"dtype":"int32"},{"name":"PartitionedCall/Reshape_3","shape":[5,5,144,1],"dtype":"float32"},{"name":"unknown_20","shape":[144],"dtype":"float32"},{"name":"PartitionedCall/transpose_32/perm","shape":[4],"dtype":"int32"},{"name":"PartitionedCall/clip_by_value_7/Minimum/y","shape":[],"dtype":"float32"},{"name":"PartitionedCall/clip_by_value_7/y","shape":[],"dtype":"float32"},{"name":"PartitionedCall/transpose_34/perm","shape":[4],"dtype":"int32"},{"name":"PartitionedCall/split_7","shape":[1,1,144,40],"dtype":"float32"},{"name":"unknown_22","shape":[40],"dtype":"float32"},{"name":"PartitionedCall/transpose_35/perm","shape":[4],"dtype":"int32"},{"name":"PartitionedCall/transpose_46/perm","shape":[4],"dtype":"int32"},{"name":"PartitionedCall/split_10","shape":[1,1,40,240],"dtype":"float32"},{"name":"unknown_30","shape":[240],"dtype":"float32"},{"name":"PartitionedCall/transpose_47/perm","shape":[4],"dtype":"int32"},{"name":"PartitionedCall/clip_by_value_10/Minimum/y","shape":[],"dtype":"float32"},{"name":"PartitionedCall/clip_by_value_10/y","shape":[],"dtype":"float32"},{"name":"PartitionedCall/Const_28","shape":[4,2],"dtype":"int32"},{"name":"PartitionedCall/transpose_49/perm","shape":[4],"dtype":"int32"},{"name":"PartitionedCall/Reshape_5","shape":[3,3,240,1],"dtype":"float32"},{"name":"unknown_32","shape":[240],"dtype":"float32"},{"name":"PartitionedCall/transpose_50/perm","shape":[4],"dtype":"int32"},{"name":"PartitionedCall/clip_by_value_11/Minimum/y","shape":[],"dtype":"float32"},{"name":"PartitionedCall/clip_by_value_11/y","shape":[],"dtype":"float32"},{"name":"PartitionedCall/transpose_52/perm","shape":[4],"dtype":"int32"},{"name":"PartitionedCall/split_11","shape":[1,1,240,80],"dtype":"float32"},{"name":"unknown_34","shape":[80],"dtype":"float32"},{"name":"PartitionedCall/transpose_53/perm","shape":[4],"dtype":"int32"},{"name":"PartitionedCall/transpose_73/perm","shape":[4],"dtype":"int32"},{"name":"PartitionedCall/split_16","shape":[1,1,80,480],"dtype":"float32"},{"name":"unknown_48","shape":[480],"dtype":"float32"},{"name":"PartitionedCall/transpose_74/perm","shape":[4],"dtype":"int32"},{"name":"PartitionedCall/clip_by_value_16/Minimum/y","shape":[],"dtype":"float32"},{"name":"PartitionedCall/clip_by_value_16/y","shape":[],"dtype":"float32"},{"name":"PartitionedCall/Const_43","shape":[4,2],"dtype":"int32"},{"name":"PartitionedCall/transpose_76/perm","shape":[4],"dtype":"int32"},{"name":"PartitionedCall/Reshape_8","shape":[5,5,480,1],"dtype":"float32"},{"name":"unknown_50","shape":[480],"dtype":"float32"},{"name":"PartitionedCall/transpose_77/perm","shape":[4],"dtype":"int32"},{"name":"PartitionedCall/clip_by_value_17/Minimum/y","shape":[],"dtype":"float32"},{"name":"PartitionedCall/clip_by_value_17/y","shape":[],"dtype":"float32"},{"name":"PartitionedCall/transpose_79/perm","shape":[4],"dtype":"int32"},{"name":"PartitionedCall/split_17","shape":[1,1,480,112],"dtype":"float32"},{"name":"unknown_52","shape":[112],"dtype":"float32"},{"name":"PartitionedCall/transpose_80/perm","shape":[4],"dtype":"int32"},{"name":"PartitionedCall/transpose_100/perm","shape":[4],"dtype":"int32"},{"name":"PartitionedCall/split_22","shape":[1,1,112,672],"dtype":"float32"},{"name":"unknown_66","shape":[672],"dtype":"float32"},{"name":"PartitionedCall/transpose_101/perm","shape":[4],"dtype":"int32"},{"name":"PartitionedCall/clip_by_value_22/Minimum/y","shape":[],"dtype":"float32"},{"name":"PartitionedCall/clip_by_value_22/y","shape":[],"dtype":"float32"},{"name":"PartitionedCall/Const_58","shape":[4,2],"dtype":"int32"},{"name":"PartitionedCall/transpose_103/perm","shape":[4],"dtype":"int32"},{"name":"PartitionedCall/Reshape_11","shape":[5,5,672,1],"dtype":"float32"},{"name":"unknown_68","shape":[672],"dtype":"float32"},{"name":"PartitionedCall/transpose_104/perm","shape":[4],"dtype":"int32"},{"name":"PartitionedCall/clip_by_value_23/Minimum/y","shape":[],"dtype":"float32"},{"name":"PartitionedCall/clip_by_value_23/y","shape":[],"dtype":"float32"},{"name":"PartitionedCall/transpose_106/perm","shape":[4],"dtype":"int32"},{"name":"PartitionedCall/split_23","shape":[1,1,672,192],"dtype":"float32"},{"name":"unknown_70","shape":[192],"dtype":"float32"},{"name":"PartitionedCall/transpose_107/perm","shape":[4],"dtype":"int32"},{"name":"PartitionedCall/transpose_136/perm","shape":[4],"dtype":"int32"},{"name":"PartitionedCall/split_30","shape":[1,1,192,1152],"dtype":"float32"},{"name":"unknown_90","shape":[1152],"dtype":"float32"},{"name":"PartitionedCall/transpose_137/perm","shape":[4],"dtype":"int32"},{"name":"PartitionedCall/clip_by_value_30/Minimum/y","shape":[],"dtype":"float32"},{"name":"PartitionedCall/clip_by_value_30/y","shape":[],"dtype":"float32"},{"name":"PartitionedCall/Const_78","shape":[4,2],"dtype":"int32"},{"name":"PartitionedCall/transpose_139/perm","shape":[4],"dtype":"int32"},{"name":"PartitionedCall/Reshape_15","shape":[3,3,1152,1],"dtype":"float32"},{"name":"unknown_92","shape":[1152],"dtype":"float32"},{"name":"PartitionedCall/transpose_140/perm","shape":[4],"dtype":"int32"},{"name":"PartitionedCall/clip_by_value_31/Minimum/y","shape":[],"dtype":"float32"},{"name":"PartitionedCall/clip_by_value_31/y","shape":[],"dtype":"float32"},{"name":"PartitionedCall/transpose_142/perm","shape":[4],"dtype":"int32"},{"name":"PartitionedCall/split_31","shape":[1,1,1152,320],"dtype":"float32"},{"name":"unknown_94","shape":[320],"dtype":"float32"},{"name":"PartitionedCall/split_34","shape":[1,1,320,96],"dtype":"float32"},{"name":"unknown_100","shape":[96],"dtype":"float32"},{"name":"PartitionedCall/Cast_1","shape":[2],"dtype":"int32"},{"name":"PartitionedCall/transpose_154/perm","shape":[4],"dtype":"int32"},{"name":"PartitionedCall/transpose_155/perm","shape":[4],"dtype":"int32"},{"name":"PartitionedCall/Cast_3","shape":[2],"dtype":"int32"},{"name":"PartitionedCall/transpose_156/perm","shape":[4],"dtype":"int32"},{"name":"PartitionedCall/Const_81","shape":[4,2],"dtype":"int32"},{"name":"PartitionedCall/transpose_162/perm","shape":[4],"dtype":"int32"},{"name":"PartitionedCall/Reshape_16","shape":[3,3,96,1],"dtype":"float32"},{"name":"unknown_104","shape":[96],"dtype":"float32"},{"name":"PartitionedCall/transpose_163/perm","shape":[4],"dtype":"int32"},{"name":"PartitionedCall/clip_by_value_32/Minimum/y","shape":[],"dtype":"float32"},{"name":"PartitionedCall/clip_by_value_32/y","shape":[],"dtype":"float32"},{"name":"PartitionedCall/transpose_165/perm","shape":[4],"dtype":"int32"},{"name":"PartitionedCall/split_35","shape":[1,1,96,96],"dtype":"float32"},{"name":"unknown_106","shape":[96],"dtype":"float32"},{"name":"PartitionedCall/transpose_166/perm","shape":[4],"dtype":"int32"},{"name":"PartitionedCall/clip_by_value_33/Minimum/y","shape":[],"dtype":"float32"},{"name":"PartitionedCall/clip_by_value_33/y","shape":[],"dtype":"float32"},{"name":"PartitionedCall/Const_86","shape":[4,2],"dtype":"int32"},{"name":"PartitionedCall/transpose_168/perm","shape":[4],"dtype":"int32"},{"name":"PartitionedCall/Reshape_17","shape":[3,3,96,1],"dtype":"float32"},{"name":"unknown_108","shape":[96],"dtype":"float32"},{"name":"PartitionedCall/transpose_169/perm","shape":[4],"dtype":"int32"},{"name":"PartitionedCall/clip_by_value_34/Minimum/y","shape":[],"dtype":"float32"},{"name":"PartitionedCall/clip_by_value_34/y","shape":[],"dtype":"float32"},{"name":"PartitionedCall/transpose_171/perm","shape":[4],"dtype":"int32"},{"name":"PartitionedCall/split_36","shape":[1,1,96,96],"dtype":"float32"},{"name":"unknown_110","shape":[96],"dtype":"float32"},{"name":"PartitionedCall/transpose_172/perm","shape":[4],"dtype":"int32"},{"name":"PartitionedCall/clip_by_value_35/Minimum/y","shape":[],"dtype":"float32"},{"name":"PartitionedCall/clip_by_value_35/y","shape":[],"dtype":"float32"},{"name":"PartitionedCall/transpose_174/perm","shape":[4],"dtype":"int32"},{"name":"PartitionedCall/split_37","shape":[1,1,96,112],"dtype":"float32"},{"name":"unknown_112","shape":[112],"dtype":"float32"},{"name":"PartitionedCall/transpose_175/perm","shape":[4],"dtype":"int32"},{"name":"PartitionedCall/Const_91","shape":[2],"dtype":"int32"},{"name":"PartitionedCall/onnx_tf_prefix_Split_109/split_dim","shape":[],"dtype":"int32"},{"name":"unknown_114","shape":[3],"dtype":"int32"},{"name":"PartitionedCall/Where_1","shape":[0,1],"dtype":"int32"},{"name":"PartitionedCall/Cast_9","shape":[1],"dtype":"int32"},{"name":"PartitionedCall/GatherV2_1","shape":[0],"dtype":"int32"},{"name":"PartitionedCall/zeros_1","shape":[],"dtype":"int32"},{"name":"PartitionedCall/onnx_tf_prefix_Transpose_116/perm","shape":[3],"dtype":"int32"}]
      }
  ]
}